data/resnet_ms/ridge_weights.npz (npz, 11612 bytes, 5 tensors)

A_w f4 [512]
0	0x3ac5e2fe	0.0015097556
1	0xb960a4e9	-0.00021423739
2	0xbdf90db5	-0.121608175
3	0xbf6d8525	-0.9278129
4	0x3f0a05fb	0.53915375
5	0x36ac9b48	5.1440766e-06
6	0xba0adcc8	-0.0005297181
7	0x3ce93777	0.02846883
8	0xbc022307	-0.0079429215
9	0x3f19a781	0.60021216
10	0xbb5eb07b	-0.0033979702
11	0x3f452560	0.77010155
12	0xbe85567b	-0.26042542
13	0x3dcf82c5	0.10132364
14	0xbb0e72c2	-0.0021735881
15	0xbd16afce	-0.036788754
16	0xbeedac4d	-0.46420518
17	0xbe1a34c4	-0.15059191
18	0xb8397fd7	-4.4226497e-05
19	0xbba3e2d7	-0.0050014067
20	0xbfb2c40e	-1.3966081
21	0x3e4d5377	0.2005137
22	0x3ba78acf	0.005112983
23	0xb7afaa59	-2.094095e-05
24	0xb8c71f7c	-9.494924e-05
25	0x3afabcbb	0.0019129732
26	0x3ab42326	0.0013743385
27	0x3ec4bae2	0.3842383
28	0x3f0b1fe7	0.54345554
29	0x37f0c8bd	2.8703706e-05
30	0xb4dbc622	-4.093609e-07
31	0xbd4013ca	-0.046893872
32	0xb9a7a0c8	-0.00031972514
33	0xbec55b4a	-0.3854621
34	0x3c4490a6	0.0119973775
35	0x3f4c32d2	0.79765046
36	0xbc7ecac1	-0.01555127
37	0xbf8e8b54	-1.113627
38	0x3fdf42be	1.7442243
39	0xb507243f	-5.0344164e-07
40	0x40212c2c	2.518321
41	0x3b7cc3dd	0.0038568892
42	0xbb177b78	-0.0023114365
43	0x3f4cd3da	0.8001076
44	0xba9c1c82	-0.0011910351
45	0xb4fce509	-4.7105303e-07
46	0x3f2b65e9	0.6695238
47	0xbffb61ca	-1.9639218
48	0x39724619	0.00023105032
49	0x37d5a18e	2.5466808e-05
50	0x3806549c	3.202689e-05
51	0xc072836d	-3.7892716
52	0x3c2be6be	0.010492025
53	0xb363f6e1	-5.307709e-08
54	0x3a06c3d3	0.00051408744
55	0x39942452	0.0002825582
56	0x3b9383e4	0.0045018066
57	0xae9e2c22	-7.192848e-11
58	0xb4e4b425	-4.2599382e-07
59	0x3c7f57e0	0.015584916
60	0x3d95f4c6	0.073220775
61	0x3921c91e	0.00015429078
62	0xbff498a5	-1.9109083
63	0xbbfa4ecc	-0.007638788
64	0x3d90727e	0.07053088
65	0x3be3f7d8	0.0069570355
66	0x3f41c2cf	0.7568788
67	0xbf0a5bd9	-0.540464
68	0xb8dafe33	-0.00010442398
69	0x3c2ee0ad	0.010673684
70	0xbe1077f1	-0.14108254
71	0xb99aa55d	-0.00029496374
72	0x3bd6e42a	0.006557961
73	0xb998966b	-0.0002910377
74	0xbb00cda6	-0.0019653826
75	0xbcfa98c2	-0.030590419
76	0x3ee7e629	0.45292786
77	0x3a2f58d6	0.0006688958
78	0xbe900f38	-0.2813661
79	0x390932d8	0.00013084279
80	0x3ea86cde	0.3289556
81	0x3f566dcf	0.83761305
82	0x4021bb32	2.5270505
83	0x3b5e6d2a	0.0033939579
84	0x3460f532	2.0950827e-07
85	0xbbb1834c	-0.005417263
86	0x3f249fc4	0.64306283
87	0xb9a57915	-0.00031561466
88	0xbbd22921	-0.0064135944
89	0x3f2125e5	0.6294845
90	0x37ed68de	2.8301434e-05
91	0xb7627ab1	-1.3499216e-05
92	0xb6849e4a	-3.952334e-06
93	0xbb3f1f83	-0.002916307
94	0xb223b92b	-9.529951e-09
95	0xba27360a	-0.0006378597
96	0x3a10a24d	0.0005517349
97	0xbf7793a2	-0.96709645
98	0x3faf883b	1.3713449
99	0xbdbc5622	-0.09196116
100	0x3f8628c6	1.0481193
101	0xb86356e5	-5.4201944e-05
102	0x3b045791	0.0020193795
103	0x3fcaa1ca	1.5830624
104	0x39da2a80	0.00041611865
105	0xb98fdd5d	-0.00027440014
106	0xb6c3751d	-5.8250866e-06
107	0x3e043de1	0.1291423
108	0x3e4012f7	0.18757235
109	0xbbba4e74	-0.005685622
110	0xb7e22b24	-2.6961388e-05
111	0x3ba8ce1b	0.005151523
112	0x3f0c9530	0.5491514
113	0x3af84e9d	0.0018944327
114	0xbcd18ec7	-0.025580777
115	0x3e9d7253	0.30751285
116	0xb910419e	-0.00013757354
117	0xbd0389da	-0.032113887
118	0x3c1c1263	0.009525868
119	0xbce51684	-0.027964838
120	0xbe6908ff	-0.22757338
121	0x3ceff4c2	0.029291514
122	0x3930b440	0.00016851816
123	0xb8824200	-6.2111765e-05
124	0xbf613239	-0.8796726
125	0x3b038cfa	0.0020073042
126	0x400f5101	2.239319
127	0xb7b76398	-2.1861677e-05
128	0xbb8e9288	-0.004350964
129	0x39b83dcd	0.0003514126
130	0x39c3e852	0.0003736639
131	0x375b710f	1.3079741e-05
132	0xbdb643cc	-0.0889965
133	0x3ea1b59c	0.3158387
134	0x3fed4a63	1.8538326
135	0x35e882fb	1.7323467e-06
136	0x3dedd91d	0.11613677
137	0x3b3a209d	0.0028400787
138	0x37fcc569	3.0132667e-05
139	0x4013241c	2.299079
140	0xb8025bc4	-3.107988e-05
141	0xb6e54811	-6.8331215e-06
142	0x39203673	0.00015279073
143	0xbe898d7b	-0.26865754
144	0x38b90138	8.8217144e-05
145	0xbc4b2881	-0.012399794
146	0xc003f533	-2.0618408
147	0x3663f2f6	3.3967058e-06
148	0x3eb8c1e9	0.36085442
149	0x3ca1dc5d	0.019758398
150	0x36541d62	3.1607565e-06
151	0x3fe45fe6	1.7841766
152	0x3e400c93	0.18754797
153	0x3c195781	0.009359241
154	0x38fa4b92	0.00011935005
155	0x374ffb01	1.2396603e-05
156	0xbe69315a	-0.22772732
157	0x3e0c684b	0.1371166
158	0xc020ea60	-2.514305
159	0xbaa0fb1e	-0.001228187
160	0xb8892998	-6.5404165e-05
161	0x3be0e470	0.0068631694
162	0x3847056b	4.7450343e-05
163	0xb7099517	-8.200549e-06
164	0x3a91d235	0.0011125269
165	0xb7c6bb7e	-2.3690747e-05
166	0xbc0bc84a	-0.008531639
167	0x2e21faf2	3.6830046e-11
168	0xb87b097a	-5.985189e-05
169	0xba27aff9	-0.00063967664
170	0x38c90d87	9.5869465e-05
171	0xb274d4a3	-1.4251017e-08
172	0x3d3b63d5	0.045749504
173	0x3e27d80a	0.16391006
174	0x3f46c434	0.7764313
175	0xb9db44e2	-0.00041822257
176	0x35f05d77	1.7908595e-06
177	0x40075ce5	2.1150448
178	0x3a19e61d	0.00058707764
179	0x3c6d523a	0.014484936
180	0x3a373682	0.00069890183
181	0x362e9e0f	2.6020023e-06
182	0xbced2dd4	-0.028952517
183	0x3f02acdb	0.51045007
184	0x3c766238	0.015038066
185	0xbb98c915	-0.0046626427
186	0xb9ee26c7	-0.0004542379
187	0xb7773420	-1.4734484e-05
188	0x3f00f1a4	0.50368714
189	0x3c79f6d4	0.015256602
190	0x358b0493	1.0357638e-06
191	0xbe78e3e9	-0.24305691
192	0x39db8e27	0.00041876847
193	0x3788bf89	1.6301654e-05
194	0x39dc166e	0.0004197838
195	0x3beef6df	0.007292613
196	0x3f5b5628	0.8567834
197	0xaad48147	-3.774847e-13
198	0xbbe81f5e	-0.0070838174
199	0xbbf1fcb2	-0.00738486
200	0x3f62b23e	0.88553226
201	0x391e812c	0.00015116174
202	0xbf46a2fa	-0.7759243
203	0x39bff6f6	0.0003661436
204	0x3ac9df52	0.0015401638
205	0xbb88d042	-0.004175217
206	0xbdb313b5	-0.08743993
207	0xb9b6d128	-0.0003486958
208	0x3f2768b9	0.6539417
209	0x3bb0e30a	0.005398159
210	0xbe95efb4	-0.2928444
211	0x39fbb7f9	0.0004801152
212	0x3fe603b1	1.7969877
213	0xbd993cad	-0.07482276
214	0xb8be3d9b	-9.071381e-05
215	0x3aab9ddd	0.0013093312
216	0x3df67a31	0.12035025
217	0xbad2dfa8	-0.0016088383
218	0xbeb5f44d	-0.3553795
219	0xb79046d6	-1.7199123e-05
220	0x37d8a53e	2.5826153e-05
221	0xba7b118e	-0.0009577506
222	0x3fc9cdff	1.576599
223	0x37c356b3	2.3286184e-05
224	0x38d3cd78	0.000100995356
225	0xb402e7b1	-1.2191482e-07
226	0xbe6c7909	-0.23093046
227	0x3a7f5227	0.00097397197
228	0x39402035	0.00018322545
229	0xbf4cbdf8	-0.7997737
230	0x39431c0b	0.00018607096
231	0xbfabe04d	-1.3427826
232	0x3ebd2fc0	0.36950493
233	0x3c32b820	0.010908157
234	0xb7595181	-1.29531845e-05
235	0x3cf979ea	0.030453641
236	0x3f4778fd	0.7791899
237	0xbaaada6d	-0.0013035067
238	0x3a90473b	0.0011007556
239	0x3a58856b	0.0008259627
240	0x39aa632f	0.00032498824
241	0x3f804a3a	1.0022652
242	0xbf9a4f5e	-1.2055471
243	0x3b699cc3	0.0035646416
244	0x3a4473ff	0.00074940914
245	0xba62e730	-0.00086556654
246	0xb8104639	-3.4397675e-05
247	0xb8822744	-6.206197e-05
248	0x3c7bb102	0.015362026
249	0xb9d92179	-0.00041414404
250	0xbc26b8d3	-0.010175901
251	0x3e14ebfe	0.14543149
252	0xbf5dd85c	-0.86658263
253	0xbbdfe6ac	-0.006832918
254	0xbc1e99ab	-0.009680192
255	0x3df11ba2	0.11772849

B_w f4 [512]
0	0x3a97964f	0.0011565181
1	0xbbc91ee5	-0.006137716
2	0x3dc682a5	0.09692887
3	0xbd3adf88	-0.045623332
4	0x0d28d66d	5.2027103e-31
5	0xbf28c475	-0.6592477
6	0xb471d417	-2.2522032e-07
7	0x3482f94d	2.4395777e-07
8	0xbfab4519	-1.3380462
9	0x3b8d5161	0.0043126796
10	0x3d113a76	0.035456143
11	0xb9853e49	-0.00025414143
12	0x3eae727d	0.34071723
13	0x32bcc5d1	2.1976037e-08
14	0xbe0acc38	-0.13554466
15	0x3f07aa7c	0.52994514
16	0x3cf7daaf	0.030255644
17	0x3ffd637a	1.9795983
18	0x3b70fe41	0.003677264
19	0x3ae0960a	0.0017134559
20	0xb8916fb6	-6.9349466e-05
21	0xba82df88	-0.000998483
22	0xbf53bb9a	-0.8270813
23	0xbcddbc64	-0.02706737
24	0xbdc8aa93	-0.097981595
25	0x3e9b6c38	0.30356002
26	0x3fa16fc1	1.261223
27	0xbc6cf834	-0.014463473
28	0xbb20fc28	-0.002456436
29	0xbd927524	-0.07151249
30	0x3ea85ef4	0.32884943
31	0x3ecbcf64	0.39806664
32	0x3d01e6de	0.031714313
33	0x3e98ab32	0.29818112
34	0xbf001cce	-0.5004395
35	0xbd9d4f87	-0.07681184
36	0xbe669ddc	-0.22521156
37	0x3d2f90b5	0.042862613
38	0x402b6b7d	2.6784356
39	0xbc81eb4d	-0.01585927
40	0xbb2db102	-0.002650321
41	0x3950161b	0.0001984466
42	0x3f4278ac	0.7596538
43	0xbc9df221	-0.019280495
44	0xb8dd078b	-0.00010539506
45	0xbb837fbe	-0.004013031
46	0x0cf2b693	3.7395887e-31
47	0xc0063c67	-2.0974367
48	0xc01cd660	-2.4505844
49	0x3240a7ad	1.1213996e-08
50	0x3c396acb	0.011316965
51	0xbbc38a25	-0.005967396
52	0x3edfad95	0.4368712
53	0x3b14ec33	0.0022723794
54	0xbc09135e	-0.008366434
55	0x3c30c37c	0.010788795
56	0x3ea208ba	0.31647283
57	0x3edd7f14	0.43261015
58	0x39bf62dc	0.00036504015
59	0xbe0c376e	-0.1369302
60	0xba400894	-0.0007325497
61	0xbdcc0af6	-0.09963028
62	0xbb8fc92f	-0.0043879966
63	0xc0a0eaf6	-5.0286818
64	0x3ad797d9	0.0016448452
65	0xbbb3fad9	-0.00549255
66	0x3794b8c0	1.7729006e-05
67	0x3f08cee0	0.53440666
68	0x403d32a6	2.9562163
69	0xbee0e578	-0.4392507
70	0x3b79e056	0.00381281
71	0xbdcd0c1c	-0.10012075
72	0x3e5f8700	0.21828842
73	0x393bf8c6	0.00017926385
74	0x3eacdabd	0.33760634
75	0x0d592e95	6.692436e-31
76	0x384bd06f	4.859309e-05
77	0x3f1e39ab	0.61806744
78	0x3c58e5c0	0.01323837
79	0xbc4d1577	-0.012517325
80	0xc015a49f	-2.3381727
81	0xbb08b0e4	-0.0020857388
82	0x3cf3c1d0	0.029755503
83	0x36fb84bb	7.495835e-06
84	0x3c01dee1	0.007926674
85	0x3b23580f	0.0024924313
86	0xb20ef108	-8.320292e-09
87	0x3f7a1ad9	0.97697216
88	0xbd709481	-0.058735374
89	0xbdc503ce	-0.09619866
90	0x3eacf4eb	0.33780608
91	0x3ecb1e52	0.3967157
92	0x3d9ba997	0.07600706
93	0xbdd9198e	-0.10600577
94	0x389ff5fd	7.62753e-05
95	0xba613a4d	-0.00085917563
96	0xbcf0e0a4	-0.029403992
97	0xbc177516	-0.009244224
98	0x32165dd0	8.75248e-09
99	0x38a55de7	7.885304e-05
100	0x39634c23	0.0002167677
101	0x3f1e4b01	0.61833197
102	0xbefa846f	-0.48929164
103	0x3d24c4ce	0.04022675
104	0xbdb53a4a	-0.088490084
105	0xbcc55349	-0.024087565
106	0x3e75e97b	0.24014847
107	0x3dae84df	0.08521437
108	0x3f1ac718	0.6046004
109	0xbee41651	-0.44548276
110	0x375d8507	1.3203599e-05
111	0xbd240d16	-0.040051542
112	0xb943df0f	-0.00018679745
113	0xbd006b41	-0.031352285
114	0xbb334a56	-0.002735754
115	0x3ccf1982	0.025280718
116	0x36c1d8b9	5.777078e-06
117	0x3fa19f0c	1.2626662
118	0x3d461d51	0.048367802
119	0x39419334	0.00018460752
120	0x359fd770	1.1909124e-06
121	0xbd2eef1e	-0.04270851
122	0xbb4d792a	-0.0031352737
123	0x3d0d4d2a	0.034497418
124	0x0bd33e78	8.1368236e-32
125	0xbf2c60cd	-0.67335206
126	0x408896d3	4.268411
127	0xbe84c79f	-0.2593355
128	0xbd0f94ed	-0.035054136
129	0xbe20613e	-0.15662095
130	0x3dc611f6	0.096713945
131	0xbbf47eee	-0.0074614203
132	0xbc40ec14	-0.011775035
133	0x3f287c8c	0.65815043
134	0x3cdd78ab	0.027035078
135	0xbb18bd2e	-0.002330612
136	0x3b98f8a3	0.0046683117
137	0x3afd0e60	0.0019306652
138	0x3d38d16a	0.045121588
139	0xbcaadb12	-0.020856414
140	0x38866fec	6.410465e-05
141	0x3d709542	0.058736093
142	0x3db7e1bd	0.08978603
143	0x3e765609	0.24056257
144	0x3c05374b	0.008130859
145	0x3c6c3cf4	0.014418829
146	0x3b8af64a	0.0042407857
147	0x3d32d09d	0.04365598
148	0x36c0f96b	5.751082e-06
149	0xb9a8c467	-0.00032189788
150	0xbe031789	-0.12801947
151	0xbe196e82	-0.14983562
152	0xb8247a49	-3.9214534e-05
153	0x3b37a0bf	0.0028019396
154	0xbd5977cb	-0.05309276
155	0xbf36653a	-0.7124821
156	0xb8a87ead	-8.0344595e-05
157	0xc084e374	-4.1527653
158	0x0b95f3cd	5.7759543e-32
159	0xbf730d8f	-0.94942564
160	0xbaab3ba7	-0.0013064042
161	0xb6e650ec	-6.8639547e-06
162	0x3e4955cf	0.1966164
163	0xbfa522e4	-1.2901273
164	0x3c2cce60	0.0105472505
165	0xbe8c9cb1	-0.27463296
166	0xbaf2f85b	-0.001853715
167	0xbd78d51d	-0.060750116
168	0xbd1892b4	-0.037249282
169	0xb7de86c1	-2.6527212e-05
170	0x3e39873b	0.18117993
171	0x3b3aa5c1	0.0028480145
172	0xba251a5b	-0.0006298178
173	0x3ab3bc62	0.0013712759
174	0x3c262e51	0.010142879
175	0x371bf600	9.295996e-06
176	0x340d2f57	1.314887e-07
177	0xb92a8925	-0.00016263554
178	0xbacbc780	-0.0015547127
179	0xbe325304	-0.1741448
180	0xbdb625ca	-0.088939264
181	0xbf9b7165	-1.214398
182	0xbe5f0e51	-0.21782805
183	0xbf1f12db	-0.62138146
184	0x371ec0ac	9.462394e-06
185	0x3d245821	0.04012311
186	0xb81e63b1	-3.776298e-05
187	0xb26d8569	-1.382555e-08
188	0x4001dcc6	2.0291
189	0xbe9b8672	-0.3037601
190	0xb6b5c0e2	-5.416675e-06
191	0x0c88c35c	2.1071695e-31
192	0x3c1b44ac	0.009476822
193	0xba80419e	-0.000978518
194	0x35fe2f48	1.8938235e-06
195	0x39cd5ddb	0.00039170575
196	0xbd88d7ce	-0.066817865
197	0xba0eac08	-0.0005442505
198	0x402d6a3c	2.709609
199	0x37865a21	1.6016014e-05
200	0x3c7f06b2	0.015565561
201	0xc01405b9	-2.3128493
202	0xbdfb15a9	-0.12259991
203	0x365cf5e0	3.2925673e-06
204	0xbb867563	-0.004103349
205	0x3e5878d5	0.21139844
206	0x37480674	1.1922431e-05
207	0x338c16e1	6.52342e-08
208	0xbe9243ce	-0.28567356
209	0x3822c571	3.880769e-05
210	0xbaae4d37	-0.0013298158
211	0x38f2ed4f	0.000115836614
212	0x3aed1953	0.0018089212
213	0x3c98079d	0.018558318
214	0x37ac3ecc	2.053324e-05
215	0xb8ab9891	-8.182333e-05
216	0x34cf55e2	3.8619243e-07
217	0x3ec23c7a	0.37936765
218	0x3b58c184	0.0033074329
219	0x3effb51e	0.4994287
220	0x3e768489	0.24073996
221	0x3d176307	0.036959674
222	0x3e2ee665	0.17080076
223	0x3a39f5c8	0.0007093814
224	0xbb8bbf12	-0.0042647207
225	0xb827b0ce	-3.9980565e-05
226	0x0d256b01	5.097335e-31
227	0xbdbb59cc	-0.09147987
228	0x38c33d2d	9.3097195e-05
229	0x3eadd4c2	0.33951384
230	0xbbad1141	-0.005281598
231	0x3e27b719	0.1637844
232	0x3c52beba	0.012862856
233	0xbf7a95f0	-0.97885036
234	0xb57823a3	-9.243906e-07
235	0xb77412d8	-1.4547921e-05
236	0xba0d3f62	-0.0005388168
237	0xb7df2802	-2.6602302e-05
238	0x363262d6	2.6581597e-06
239	0xbc5b5e28	-0.013389148
240	0x3e725498	0.23665082
241	0x3d13b3f3	0.036060285
242	0xb7e9db56	-2.78779e-05
243	0xbbab1816	-0.005221377
244	0xbf2a893f	-0.6661567
245	0x3b05c8d8	0.0020413902
246	0x3dc56f10	0.09640324
247	0xb6ff2a48	-7.6045144e-06
248	0xbc71254a	-0.014718363
249	0x3efdb065	0.4954864
250	0x8d1dae38	-4.858907e-31
251	0xbbb05ef3	-0.0053824126
252	0x406a0927	3.6568086
253	0xbc7aeb02	-0.015314819
254	0xbd8c5901	-0.06852914
255	0xbda12017	-0.07867449

C_w f4 [512]
0	0xba896918	-0.0010483591
1	0x3a8cc148	0.0010738755
2	0xba86cb35	-0.0010283949
3	0xba866077	-0.0010252137
4	0x3bdd7a5c	0.006758971
5	0xba87bd37	-0.0010356073
6	0xba880a87	-0.0010379114
7	0x3a871112	0.001030477
8	0xba86cb73	-0.0010284021
9	0x3b1a14ea	0.0023511
10	0xba867b18	-0.0010260073
11	0x3c202443	0.0097742705
12	0xbc91a328	-0.017777994
13	0xba878a8a	-0.001034097
14	0xba87809d	-0.0010338012
15	0x3bd3b192	0.006460377
16	0x3ae2e440	0.0017310455
17	0xba84a6f4	-0.0010120557
18	0xba8713fd	-0.001030564
19	0x3a8703a9	0.0010300773
20	0x3a87671c	0.0010330412
21	0xba86d0fb	-0.001028567
22	0x3a87dada	0.0010364905
23	0xba8655b2	-0.0010248928
24	0xba8a8aae	-0.0010569894
25	0x3a87a556	0.0010348957
26	0xbc9db673	-0.019252038
27	0x3a86ab0d	0.0010274366
28	0xba8656ab	-0.0010249218
29	0x3a878f26	0.0010342344
30	0x3a87d3fa	0.0010362857
31	0xba8e391f	-0.0010850764
32	0x3a853d28	0.0010165321
33	0x3a87035f	0.0010300687
34	0x3a870dcf	0.0010303798
35	0xba878002	-0.0010337832
36	0x3a87186d	0.0010306962
37	0x3a87f892	0.0010373762
38	0x3cc7dcbc	0.024397247
39	0x3a86d615	0.001028719
40	0x3a86fdaa	0.0010298986
41	0x3b78502e	0.0037889588
42	0xba86eff7	-0.0010294904
43	0x3cb9451f	0.022615967
44	0xba88b9c1	-0.0010431336
45	0x3a8641c8	0.0010242993
46	0x3b9acf1e	0.0047243973
47	0xba881f6a	-0.0010385339
48	0xba85f388	-0.0010219673
49	0xbb99d90d	-0.004695064
50	0xba87b574	-0.001035376
51	0x3aa8060e	0.0012819187
52	0x3a86ab39	0.0010274417
53	0xba868933	-0.0010264277
54	0xbb445a38	-0.0029961
55	0xba86d662	-0.001028728
56	0x3a86c977	0.001028343
57	0x3a885f99	0.0010404467
58	0x3bc4b6aa	0.0060032206
59	0x3a84322a	0.0010085751
60	0x3b06e360	0.0020582303
61	0x3a871014	0.0010304474
62	0xba8cdf66	-0.001074773
63	0x3a86e043	0.0010290224
64	0x3a122b5f	0.0005575921
65	0xba86b112	-0.001027616
66	0xbbbc2533	-0.005741739
67	0xbef2ec4c	-0.47445905
68	0x3a882529	0.0010387051
69	0xba89e5c2	-0.0010520744
70	0x3a8677dc	0.001025911
71	0xba867845	-0.0010259232
72	0xbbae796d	-0.0053245337
73	0xba86f1f2	-0.0010295494
74	0x3a88b315	0.0010429347
75	0x3a09cc91	0.0005256618
76	0x3a878277	0.0010338564
77	0x3c0e09da	0.008669341
78	0xba870302	-0.0010300579
79	0x3a86e59a	0.0010291815
80	0xbca2ea08	-0.019886985
81	0x3bd26a79	0.006421384
82	0xba86adf9	-0.0010275237
83	0xba874f5f	-0.0010323337
84	0xbb9e02d0	-0.0048221126
85	0xba87173b	-0.0010306606
86	0x3a875e08	0.0010327706
87	0x3cb46be6	0.022024106
88	0x3a86bc82	0.0010279568
89	0xba871133	-0.0010304808
90	0xba86de18	-0.0010289578
91	0x3a883a9e	0.0010393446
92	0xba872e44	-0.0010313471
93	0xbb0fa9c5	-0.002192126
94	0xba8acb81	-0.0010589213
95	0x3a877fbe	0.0010337753
96	0xba86abbd	-0.0010274571
97	0xba87607b	-0.0010328436
98	0xba8746dd	-0.0010320802
99	0x3a8789b8	0.0010340726
100	0xba867bfb	-0.0010260338
101	0x3a86b4ce	0.0010277273
102	0xba873c5e	-0.0010317673
103	0x3a870fe6	0.0010304421
104	0xba86d3c3	-0.0010286499
105	0x3a875c9b	0.0010327281
106	0xba87f652	-0.0010373092
107	0xba874109	-0.0010319065
108	0x3a86b15d	0.0010276247
109	0xba86fce5	-0.0010298757
110	0x3ac1d222	0.0014787356
111	0x3a8908c9	0.0010454889
112	0x3a85c720	0.0010206439
113	0x3c4f3d24	0.012648854
114	0x3a87f453	0.0010372497
115	0x3a897aeb	0.0010488903
116	0x3a899fec	0.0010499931
117	0xbae2486e	-0.0017264017
118	0x3a88277f	0.0010387747
119	0xba8715e0	-0.0010306202
120	0x3a86f692	0.0010296872
121	0x3a862df1	0.001023708
122	0xba87fd27	-0.0010375128
123	0xba880713	-0.0010378085
124	0xba87439e	-0.0010319834
125	0x3a875583	0.0010325167
126	0xbc3c350c	-0.011487257
127	0x3a876d63	0.0010332282
128	0xba88912f	-0.0010419245
129	0x3a8738bb	0.001031659
130	0xba895910	-0.0010478813
131	0x3a86b27e	0.0010276583
132	0x3a877056	0.0010333161
133	0x3a87c4c7	0.0010358327
134	0x3a86af90	0.001027571
135	0xbaac2e4b	-0.0013136355
136	0xbb8f85b4	-0.0043799523
137	0xba8818f3	-0.0010383412
138	0xba8681ee	-0.0010262111
139	0xba85d079	-0.0010209224
140	0xba98ec09	-0.0011667024
141	0xbc0d82fc	-0.008637186
142	0xba8e90dd	-0.0010876913
143	0xba87d599	-0.001036334
144	0xba89ba23	-0.0010507744
145	0xba871bad	-0.0010307931
146	0xba876361	-0.00103293
147	0xba86f6fb	-0.0010296995
148	0x3a873727	0.0010316119
149	0xbaa2a9b0	-0.001241019
150	0xba8752ed	-0.0010324396
151	0x3c6cfc3c	0.014464434
152	0xba881358	-0.0010381741
153	0xba86f100	-0.0010295212
154	0x3a86f423	0.0010296147
155	0x3a8794b4	0.0010344
156	0x3a87a536	0.0010348919
157	0xbce6bc38	-0.028165922
158	0x3d094c1b	0.033519845
159	0xba8a5617	-0.0010554221
160	0xba87ec6a	-0.001037014
161	0x3a87be8e	0.0010356472
162	0xba89ae36	-0.0010504189
163	0xbb917e44	-0.004440101
164	0xbae3adc9	-0.0017370518
165	0xba87970a	-0.0010344696
166	0x3a8aa04c	0.0010576337
167	0x3a8785b4	0.0010339529
168	0x3a883ab1	0.0010393468
169	0xba872189	-0.0010309677
170	0x3a881553	0.0010382332
171	0x3a88022f	0.0010376627
172	0xba87bc70	-0.0010355841
173	0x3bad5952	0.005290189
174	0x3b979568	0.004625965
175	0x3a8851d2	0.0010400361
176	0xba882d71	-0.0010389519
177	0xbb01b267	-0.0019790174
178	0x3a8a6d87	0.0010561206
179	0xba86fa9b	-0.0010298075
180	0x3a87afa4	0.0010352028
181	0x3a896b47	0.0010484242
182	0x3b8a5591	0.004221626
183	0xba86ad56	-0.0010275047
184	0xba877993	-0.0010335915
185	0xbccac602	-0.02475262
186	0x3be29f61	0.006915972
187	0x3a89ebc5	0.0010522535
188	0xbcc1a148	-0.023636475
189	0xba893685	-0.0010468519
190	0xba87d46b	-0.0010362988
191	0xbbe4de5f	-0.0069845165
192	0xba871f46	-0.0010309003
193	0x3a866af4	0.0010255263
194	0xba86beaf	-0.0010280217
195	0xba861283	-0.0010228906
196	0xba8658f4	-0.0010249899
197	0xba86a847	-0.0010273539
198	0xbbda5468	-0.006662894
199	0x3a88d359	0.0010438963
200	0x3a87b4e4	0.0010353592
201	0xba8756bb	-0.001032553
202	0xba885771	-0.0010402036
203	0x3a871cea	0.00103083
204	0x3a86db02	0.0010288658
205	0xbb5dba1d	-0.0033832856
206	0x3a87b719	0.001035425
207	0x3a8851d8	0.0010400368
208	0xba87ac09	-0.0010350953
209	0xba87503b	-0.0010323593
210	0xba872993	-0.0010312073
211	0xba88a4b0	-0.0010425057
212	0xba86e9e0	-0.0010293089
213	0x3a895e34	0.0010480345
214	0xba8719d7	-0.0010307383
215	0xba86e1f9	-0.0010290734
216	0xbb27c230	-0.0025597923
217	0x3a873004	0.0010313992
218	0x3a88a5df	0.001042541
219	0x3a896121	0.0010481217
220	0x3a874856	0.001032124
221	0xba86dcf8	-0.0010289242
222	0x3a87158f	0.0010306108
223	0xba8a0945	-0.0010531327
224	0x3a881fd9	0.0010385468
225	0xbb9b52f9	-0.0047401157
226	0xbcad641e	-0.021165904
227	0xba86a17d	-0.0010271516
228	0x3a879eb3	0.0010346979
229	0x3a87ad2a	0.001035129
230	0x3a87a339	0.0010348327
231	0xba87176e	-0.0010306665
232	0xba876404	-0.001032949
233	0x3a8718d3	0.0010307081
234	0xbb254f2d	-0.0025224194
235	0xba86f1fd	-0.0010295507
236	0x3ae74eac	0.0017647347
237	0xba8726b6	-0.0010311219
238	0x3a87a172	0.0010347797
239	0x3a89859f	0.0010492093
240	0xba86f342	-0.0010295885
241	0x3af6ce0e	0.001882972
242	0xba85e23e	-0.001021452
243	0xbc077ba1	-0.0082692215
244	0xba84c779	-0.0010130248
245	0xba87be56	-0.0010356407
246	0xba896d78	-0.0010484895
247	0x3a876d4b	0.0010332254
248	0x3a868d9e	0.0010265594
249	0xbc1ffdb7	-0.00976508
250	0xbb82f6c0	-0.0039967
251	0x3a872783	0.0010311458
252	0x3a86f613	0.0010296725
253	0x3a87d8e4	0.0010364321
254	0x3bc52a9b	0.006017042
255	0xba88c86c	-0.0010435707

D_w f4 [512]
0	0xbc0b6a9b	-0.008509303
1	0xbb14dc45	-0.0022714299
2	0xbb9bd535	-0.004755641
3	0xbc0fb828	-0.008771934
4	0x3c422124	0.011848722
5	0x3b812301	0.0039409404
6	0xbc0c0ef7	-0.00854849
7	0x3bd2ab72	0.0064291293
8	0xbb81aaaf	-0.0039571146
9	0xbbcdb052	-0.0062771225
10	0xbcfb92f7	-0.030709727
11	0x3ca93209	0.020653741
12	0xbc7e2341	-0.015511335
13	0xbb5e17ee	-0.0033888775
14	0xbba8d377	-0.0051521617
15	0x3b2cbf2c	0.0026359065
16	0xbc14f583	-0.009091738
17	0xbab59c12	-0.0013855717
18	0xbb70f01a	-0.0036764205
19	0x3b926825	0.0044679814
20	0xb9d41d74	-0.00040457735
21	0xbb91d0c0	-0.004449934
22	0x39ae2827	0.00033217782
23	0x3ce21e6a	0.027602393
24	0x3abc8665	0.0014383314
25	0xbd11b135	-0.03556939
26	0xbd0feb6b	-0.03513662
27	0x3a4651b0	0.0007565273
28	0xba945008	-0.0011315355
29	0xbba2e778	-0.004971441
30	0x3b9f4cec	0.0048614647
31	0x3c61621e	0.013756303
32	0xbd452140	-0.048127413
33	0xbae6d30b	-0.0017610503
34	0xbc5ffda3	-0.013671312
35	0x3c27540b	0.0102129085
36	0xbd5c79e3	-0.053827178
37	0x3bf8b016	0.0075893505
38	0xb94b9a84	-0.0001941715
39	0x3aaaa8eb	0.0013020312
40	0x3c8c3442	0.017114762
41	0x3be8ec14	0.007108221
42	0x3ba94bbe	0.0051665
43	0xbcbdbf65	-0.023162553
44	0x3b219e21	0.0024660903
45	0x3b2f6015	0.002676015
46	0x3bd782fb	0.0065768934
47	0xbc2d2c07	-0.010569579
48	0x3b2c52cf	0.0026294475
49	0x3b70a803	0.0036721237
50	0xbaad9465	-0.0013243078
51	0xbd297aaa	-0.041376747
52	0x3be74c02	0.0070586214
53	0x3c0ce7b8	0.008600168
54	0x3b3af59c	0.0028527742
55	0x3c3b753b	0.011441524
56	0x3ca9bb50	0.0207192
57	0x3d3caee4	0.046065226
58	0xba184bb0	-0.0005809618
59	0x3c2575c8	0.010098882
60	0xbb2a61f2	-0.0025998321
61	0x3cc2477b	0.023715725
62	0x3a8a31d4	0.0010543414
63	0xbb880238	-0.004150655
64	0x3d8944b6	0.06702559
65	0x3b860a67	0.0040905955
66	0x3d36c574	0.0446219
67	0x3caf0c49	0.021368163
68	0xbd0910b3	-0.03346319
69	0xbc48d656	-0.012258133
70	0xbcda72d2	-0.026666079
71	0x38f1e654	0.000115346775
72	0xba179e80	-0.0005783811
73	0xbcb42d81	-0.021994354
74	0xbcebecf9	-0.02879952
75	0x3be7df44	0.007076176
76	0x3a19b5af	0.000586356
77	0x3c29dc7d	0.01036751
78	0x3c68774a	0.014188597
79	0xbc757d44	-0.014983479
80	0x3d16fc2d	0.036861587
81	0xbd3364ef	-0.04379743
82	0x3d146251	0.036226574
83	0x3c2794aa	0.010228315
84	0x3ce81e6b	0.028334817
85	0x3b55ff76	0.0032653487
86	0x3c8f1b1b	0.01746898
87	0xbb016aa7	-0.0019747408
88	0xbcfe4244	-0.031037457
89	0x3cb0b315	0.021569768
90	0xbc2296f3	-0.009923684
91	0xbc6cbc07	-0.014449126
92	0xbaaf1991	-0.001335906
93	0xbba16bae	-0.0049261665
94	0x3be33181	0.0069333916
95	0xbc19806a	-0.009368995
96	0xbc9b91a8	-0.018990353
97	0xbc5b525f	-0.013386338
98	0xbbdf7f60	-0.006820604
99	0xbab116c3	-0.0013510812
100	0xbad13804	-0.0015962129
101	0xbcfbe89f	-0.03075057
102	0x3d045238	0.032304972
103	0x3c59a879	0.013284796
104	0xba731206	-0.00092724
105	0x3aebaf40	0.0017981306
106	0x399acd40	0.00029526092
107	0xbbf22e05	-0.00739074
108	0xbc5039a6	-0.012709057
109	0xba53781a	-0.0008066908
110	0x3c242ec2	0.010020914
111	0x3b386cd0	0.002814103
112	0xbbb3019b	-0.005462838
113	0x3c618ec0	0.013766944
114	0xbadd0f6f	-0.0016865561
115	0xbd01b5e6	-0.031667612
116	0x3c8b8340	0.017030358
117	0x3cb6d8a6	0.022320103
118	0xbbf4709f	-0.0074597145
119	0xbccf1fb5	-0.025283674
120	0xbb96c7b2	-0.0046014423
121	0xbce54591	-0.027987273
122	0x3ccd6fb7	0.025077684
123	0xbbb17cef	-0.0054165046
124	0x3cb818f3	0.022472834
125	0xbcb0ee5b	-0.021598032
126	0xbcb29aa8	-0.021802261
127	0x3c428ad8	0.011873923
128	0x3ca6a75a	0.020343471
129	0x3c383361	0.011242718
130	0xbcadc5bf	-0.021212457
131	0xbc5dc600	-0.013535976
132	0x3c7ab57e	0.01530206
133	0x3c3c709a	0.011501456
134	0x3d3f2664	0.04666747
135	0x3cfda639	0.03096305
136	0x3d46f305	0.048571605
137	0xbbd9af1d	-0.0066431896
138	0x3c6a5b96	0.014304062
139	0x3c79d7c7	0.015249199
140	0x3ca84fd0	0.02054587
141	0x3d565dba	0.05233548
142	0x3bc24539	0.005928662
143	0x3c00697f	0.007837652
144	0xbb17ee94	-0.0023182975
145	0xbc5c5d9f	-0.013450055
146	0xbba3e020	-0.005001083
147	0xbc3ae46a	-0.011406997
148	0xbc26e23d	-0.010185775
149	0x3c289071	0.010288344
150	0xbb47f352	-0.003051002
151	0xbc274438	-0.010209136
152	0xbbed3fb1	-0.0072402586
153	0x3b82ddc8	0.0039937235
154	0x3c1da240	0.009621203
155	0x3c49d09b	0.012317802
156	0xbc802566	-0.015642833
157	0xbc01178e	-0.007879151
158	0xbd4c2184	-0.04983665
159	0xbc0677c5	-0.008207266
160	0x3cece92f	0.028919784
161	0x3bf79f00	0.007556796
162	0x3cb65fc1	0.022262456
163	0x3baf1d30	0.0053440556
164	0xbb4eef8f	-0.0031575894
165	0x3ccea6c3	0.025226003
166	0xbbad8774	-0.0052956883
167	0x3b76560a	0.0037587904
168	0x3c46fd66	0.012145376
169	0xbd0be160	-0.03415048
170	0x3bafcda3	0.00536509
171	0x396fea5f	0.00022880126
172	0xbcf8f83b	-0.030391803
173	0xbc32896e	-0.010897024
174	0x3bf655f6	0.0075175716
175	0x3c44e4ee	0.012017472
176	0x3ab42409	0.001374365
177	0x3c86dc11	0.016462358
178	0x3adbccab	0.001676937
179	0x3c66e31a	0.014092231
180	0xbce66233	-0.028122997
181	0xbc2dc61e	-0.010606317
182	0xbc9255cd	-0.017863179
183	0x3bf58847	0.007493052
184	0xbb2da9d8	-0.002649894
185	0xbce501c5	-0.027954945
186	0x3c95c20f	0.01828101
187	0xbd1250dd	-0.03572165
188	0xbc53305b	-0.012889947
189	0x392884a6	0.00016071144
190	0x3c88f9b8	0.016720638
191	0xbbaaac1a	-0.0052085044
192	0xbcdbd02f	-0.026832668
193	0xbbee758b	-0.007277196
194	0xbc2ae3af	-0.010430261
195	0x3cbeb600	0.023280144
196	0x3ba12527	0.004917759
197	0xbc89d990	-0.016827375
198	0xbb841f4d	-0.0040320517
199	0xbced9f8a	-0.029006738
200	0x3b14eeae	0.0022725272
201	0x3ca2cdf1	0.019873591
202	0x38bc5172	8.979709e-05
203	0xbcfd5449	-0.03092398
204	0xbd00fdb4	-0.03149195
205	0xbc740a71	-0.014895068
206	0x3b84c308	0.00405157
207	0x3bae56ca	0.0053204047
208	0xbb19da4c	-0.0023476062
209	0x3a273a85	0.00063792645
210	0x3d8818fc	0.066453904
211	0x3d7aebc9	0.06126002
212	0xbac59861	-0.001507532
213	0x3b93c1fa	0.004509208
214	0xbb3467db	-0.0027527723
215	0x3c4addd7	0.012381992
216	0x3d031465	0.03200187
217	0x3c3802d3	0.011231142
218	0xbcd560da	-0.026047159
219	0x3bf396bc	0.0074337404
220	0x3b4ebcdb	0.0031545672
221	0xb9f5a9b7	-0.0004685649
222	0xbc9233b4	-0.01784692
223	0xbbaed62a	-0.005335589
224	0xba9e4d37	-0.0012077455
225	0xba15e9b1	-0.00057187217
226	0xbd16b266	-0.036791228
227	0x3d11256c	0.03543608
228	0x3bc63b82	0.0060495744
229	0xbc89476e	-0.016757693
230	0xbb9cc5a7	-0.004784304
231	0x3c9cf8ae	0.019161548
232	0xbcab53d4	-0.020913996
233	0x3b4410f7	0.0029917338
234	0x3cee30ac	0.029075943
235	0x3c821c1d	0.015882546
236	0xbd2914f6	-0.041279756
237	0x3c97d9e2	0.018536512
238	0x3bd05362	0.0063575963
239	0xbcde360a	-0.027125377
240	0x3bf03006	0.0073299436
241	0x3baa0856	0.005188982
242	0xbbe0c67c	-0.0068595987
243	0x3d961259	0.07327718
244	0x3cfd6b92	0.030935083
245	0x391d80f6	0.00015020728
246	0x3c975472	0.018472884
247	0xbba41582	-0.0050074467
248	0xbd0c4ae9	-0.034251127
249	0xbd46869e	-0.048468225
250	0xbce7dd56	-0.028303783
251	0x3bb03756	0.0053776903
252	0x3bab9526	0.0052362857
253	0xbb1a53a3	-0.0023548387
254	0xbce26fbb	-0.027641168
255	0xbc423c2d	-0.011855167

E_w f4 [512]
0	0xbbc0f617	-0.005888711
1	0xbc0df65e	-0.008664696
2	0xbce49956	-0.027905148
3	0xbc742493	-0.014901298
4	0x3d1f3367	0.03886738
5	0x3c191212	0.009342687
6	0xbabe89af	-0.0014536883
7	0x3c8aea2e	0.016957369
8	0x3c5ce311	0.013481871
9	0x3c3593a9	0.011082568
10	0xbccb2149	-0.024796145
11	0x3c851e3a	0.016249765
12	0x3c33206b	0.010933022
13	0x3a46e551	0.00075872714
14	0x3be51531	0.0069910516
15	0x3d1ca6dc	0.038245067
16	0xbd753cb7	-0.059872355
17	0x3d3a34d5	0.04546054
18	0x3bba860d	0.0056922496
19	0xbb82e47e	-0.0039945235
20	0xbb88bfd7	-0.0041732597
21	0xbd533ba3	-0.051570546
22	0xbbeb8fdf	-0.0071887816
23	0x3b0163e6	0.0019743382
24	0xbc8deedd	-0.017325813
25	0xbc62c3e8	-0.013840653
26	0xbd017e41	-0.031614546
27	0xbbc6168e	-0.006045169
28	0x3c3dfcd0	0.01159592
29	0xbc050802	-0.008119585
30	0x3ad543b0	0.0016270783
31	0x3d06e15c	0.032929763
32	0xbc183a4d	-0.009291244
33	0xbc967895	-0.018368045
34	0xbc06728b	-0.00820602
35	0x3bd315b2	0.0064417953
36	0x3b4f689b	0.0031648043
37	0x3c8fa359	0.017533945
38	0x3bec0284	0.0072024483
39	0xbc5b3423	-0.01337913
40	0x3cfaf9e6	0.030636739
41	0x3d43ef47	0.047835615
42	0x3b1291a0	0.0022364631
43	0xbd017daa	-0.031613983
44	0xbc65599b	-0.013998414
45	0xbc4c7f90	-0.012481585
46	0x3c8ff87b	0.01757454
47	0xbb443942	-0.0029941355
48	0x3beede6d	0.007289699
49	0xbb21d7d6	-0.0024695299
50	0xbcadc16a	-0.021210391
51	0xbcd0d496	-0.025491994
52	0x3c57393d	0.013136205
53	0xbd1d1eea	-0.03835956
54	0x3c543002	0.012950899
55	0x3cbc6716	0.022998374
56	0xbb95864c	-0.0045631286
57	0x3c35fa6b	0.011107068
58	0x3c99148e	0.018686559
59	0xbbf548a2	-0.007485465
60	0x3c078150	0.008270577
61	0xbc289d9d	-0.010291484
62	0x3b3e76fe	0.0029062624
63	0x3c3b4cf8	0.011431925
64	0x3cba7d28	0.022764757
65	0xbbb670f4	-0.0055676643
66	0x3caf8012	0.021423373
67	0x3d137cb1	0.036007587
68	0xbd54617f	-0.051850792
69	0x3cf1b4e4	0.0295052
70	0xbd29a943	-0.041421186
71	0x3c89761b	0.01677995
72	0xbcb78f4e	-0.0224072
73	0xbb30b6fb	-0.0026964534
74	0x3ca69602	0.020335201
75	0xbc641df2	-0.013923155
76	0xbcbbf328	-0.022943094
77	0xbab4b926	-0.0013788089
78	0xbcc6a45d	-0.024248296
79	0xbd3058f9	-0.0430536
80	0x3c448b2a	0.01199607
81	0xbc03835a	-0.008026922
82	0xbcb57dff	-0.022154806
83	0x3c87f8d3	0.01659814
84	0x3c001ef5	0.007819881
85	0x3c247adb	0.010039057
86	0x3bff8da5	0.0077988678
87	0x3cbc0fad	0.022956694
88	0xbc93e394	-0.018052854
89	0x3cc83bba	0.024442542
90	0xbc7879d7	-0.015165768
91	0x3b1540e8	0.0022774283
92	0xbba164f3	-0.004925364
93	0xbcd30080	-0.025757074
94	0xbab0366e	-0.0013443956
95	0xbd5395ce	-0.051656537
96	0x3bc47559	0.0059954342
97	0xbc2610a9	-0.010135808
98	0x3af22aba	0.0018475868
99	0xbcbe6845	-0.023243079
100	0x392490e6	0.00015694238
101	0x3c56ef0a	0.013118515
102	0xbb2f21cb	-0.0026723023
103	0x3b02fb44	0.0019986192
104	0x3b9a42bd	0.004707663
105	0xbc1595c0	-0.009129941
106	0xbb5544b5	-0.0032542173
107	0xbcdef6f2	-0.027217362
108	0xbb15f4f1	-0.0022881592
109	0xbc0de6e0	-0.008661002
110	0xbc063cb4	-0.008193184
111	0x3d13a3e0	0.036044955
112	0xbd0159f8	-0.03157994
113	0xbb9b58ea	-0.004740824
114	0xbb62bf8c	-0.0034599034
115	0xbccdfc24	-0.025144644
116	0x3ccd33f7	0.025049193
117	0x3d3e7f38	0.046508044
118	0xbc517dc9	-0.012786337
119	0x3a9d96c3	0.001202308
120	0xbcbf2483	-0.02333284
121	0xbbd8117d	-0.0065938816
122	0xbcbe0505	-0.023195753
123	0xbc814b98	-0.015783116
124	0x3cdbca02	0.026829723
125	0xbbccdfa1	-0.0062522446
126	0xbceac42a	-0.028657991
127	0xbc1c647f	-0.0095454445
128	0xbc001bcd	-0.007819128
129	0xbb8313f8	-0.004000183
130	0xbd771a60	-0.060327888
131	0xbd1c5822	-0.038169987
132	0xbbb2e6fb	-0.005459664
133	0xbb088176	-0.0020829118
134	0x3b9330f2	0.0044919187
135	0xbbe4f1fa	-0.0069868537
136	0x3d4018da	0.0468987
137	0xbc77ff5e	-0.015136568
138	0x3c8ac86a	0.016941268
139	0x3d2e518e	0.042558245
140	0x3c57426f	0.013138398
141	0x3d78bc1d	0.060726274
142	0x3d156208	0.036470443
143	0xbc97e91b	-0.01854377
144	0x3c844daf	0.016150324
145	0xbca93c0f	-0.020658521
146	0xbc600296	-0.013672492
147	0x3c3e0d11	0.011599795
148	0xbc541c3b	-0.012946184
149	0xbc08f59b	-0.008359338
150	0xbc41ab17	-0.011820576
151	0x3d04c803	0.03241731
152	0xbbbf7b41	-0.0058435504
153	0xbd5ac637	-0.05341169
154	0x3bd708fc	0.0065623503
155	0x3b33af06	0.0027417555
156	0x3cad081a	0.021122027
157	0x3b6bf8fb	0.0036006558
158	0xbcd5e125	-0.026108334
159	0xbb108dcc	-0.0022057174
160	0x3bc7c888	0.0060969032
161	0x3c983cbe	0.018583652
162	0x3c467e80	0.012115121
163	0x3bfd668f	0.007733173
164	0xbc255d74	-0.010093082
165	0x3ab16300	0.0013533533
166	0xbc3353a4	-0.010945234
167	0x3a7ee24d	0.00097230525
168	0x3c4067f8	0.011743538
169	0xbc5a0aa7	-0.013308204
170	0x3bd5afe3	0.0065212115
171	0xbc235492	-0.009968894
172	0xbb6430f9	-0.003481923
173	0xbcae71f8	-0.021294579
174	0x3a8b9623	0.0010649603
175	0x3b4b583b	0.0031027931
176	0xb9b7af8c	-0.00035035273
177	0x3d31c458	0.04340014
178	0xbd05044d	-0.032474805
179	0xbc8dfbe6	-0.017332029
180	0xbcbfcdd5	-0.023413578
181	0xbcfab7a0	-0.030605137
182	0x3c1175d7	0.008878193
183	0x3d3de476	0.046360455
184	0xba869582	-0.0010267945
185	0xbc88a1c8	-0.016678706
186	0x3bf79bf9	0.007556435
187	0xbc38b704	-0.011274103
188	0xbcf05f04	-0.029342182
189	0x3c802743	0.015643721
190	0x3c11aee3	0.008891794
191	0x3d14f266	0.03636398
192	0xb83f1d8d	-4.556547e-05
193	0x3c9a00dc	0.018799238
194	0xbc70f1bf	-0.014706074
195	0x3c267297	0.010159156
196	0x3c3d9f9b	0.011573697
197	0xbbdbf39e	-0.006712391
198	0x3adefc20	0.0017012395
199	0xbd0930ab	-0.03349368
200	0x3ca28cd4	0.019842543
201	0xbc3b53e2	-0.011433573
202	0xbc1810d7	-0.009281359
203	0xbc9b8dd7	-0.018988533
204	0xbb78b599	-0.0037950038
205	0x3c945819	0.018108414
206	0xbc3f39dc	-0.01167151
207	0x3c53a52e	0.0129178
208	0x3c4c2f35	0.012462427
209	0x3ce9ae29	0.028525429
210	0x3cee4f33	0.0290905
211	0x3c885310	0.01664117
212	0x3badc04c	0.0053024646
213	0xbc496535	-0.012292196
214	0x3aabafc1	0.0013098643
215	0xbb8ca9f7	-0.0042927223
216	0x3c8beadb	0.017079761
217	0xbbaa2d98	-0.0051934235
218	0x3be0e362	0.0068630436
219	0x3c7cacb5	0.015422036
220	0xbbcde5b6	-0.006283487
221	0x3b9f942b	0.004869958
222	0x3c38da8f	0.011282577
223	0x3ccbe1b1	0.024887891
224	0x3c712c2b	0.014720003
225	0x3d1049a6	0.035226487
226	0xbcccc52c	-0.024996363
227	0xbc70b875	-0.0146924155
228	0x3c3a9868	0.011388876
229	0x3c8f238f	0.01747301
230	0xbb511ba7	-0.0031907351
231	0x3b18bfdf	0.0023307723
232	0xbd1701a2	-0.03686679
233	0x3b254282	0.0025216644
234	0x3cfe5eb5	0.03105102
235	0xbc5061b4	-0.012718607
236	0xbd5e74db	-0.05431066
237	0x3be4d300	0.006983161
238	0xbc846ebd	-0.016166085
239	0xbcecdc2e	-0.028913584
240	0x3cb8edf1	0.022574397
241	0xbc889e2e	-0.016676988
242	0x3d2f4b37	0.04279634
243	0x3bdeb2c2	0.006796212
244	0x3d0bdc0b	0.034145396
245	0xba973d8f	-0.0011538732
246	0xbb814843	-0.003945382
247	0x3be9b9f4	0.007132763
248	0xbacc640b	-0.001559378
249	0xbd50e944	-0.05100371
250	0xbc4803be	-0.012207923
251	0xba3870cc	-0.0007035851
252	0x3c530598	0.012879752
253	0xbc770fd7	-0.01507946
254	0xbd12a2e9	-0.035799894
255	0xbd153ce3	-0.03643502
