outputs/ridge_weights.npz (npz, 11603 bytes, 5 tensors)

A_w f4 [512]
000000 2e 52 27 36 f4 97 2c 37 f0 62 af 3a 39 ff 97 3c
       2.4932774e-06 1.0287378e-05 0.0013380926 0.018554317
000010 2f 63 91 ba e2 f9 3e b1 7f 14 4b b6 8b fb 87 37
       -0.0011092181 -2.779068e-09 -3.0261288e-06 1.6210388e-05
000020 0c 8a 66 b9 c9 6e a8 3b 6d e2 86 b6 11 28 40 bb
       -0.00021985936 0.0051401597 -4.0198706e-06 -0.0029320756
000030 c6 f0 0a 3b fd 21 57 38 92 93 85 b9 6a d1 71 b9
       0.002120064 5.129165e-05 -0.00025477685 -0.00023061564
000040 67 39 4a bd 2e ca 32 bb 96 06 cb 32 98 87 8d 38
       -0.04937115 -0.0027281153 2.3635305e-08 6.74866e-05
000050 b2 c8 a1 3b d7 e0 49 b9 b3 00 76 b7 0f a1 87 33
       0.004937255 -0.00019252613 -1.4662905e-05 6.315724e-08
000060 99 c2 72 b5 b9 60 21 39 2c 99 f1 34 81 bf 1f 3a
       -9.04352e-07 0.00015390188 4.5001195e-07 0.0006093905
000070 f0 2f 9d b9 a8 88 72 34 9d 4b 12 32 3e 34 a6 b9
       -0.0002998109 2.2587722e-07 8.515511e-09 -0.0003170091
000080 d2 44 06 36 9a 18 dd 3b 88 bd c3 b8 85 c7 da 3a
       2.0007615e-06 0.0067473175 -9.3336275e-05 0.0016691542
000090 61 98 87 b9 d8 18 cb 3b 94 28 d1 3b 6b 6f 06 2f
       -0.00025862738 0.00619803 0.006383011 1.2226813e-10
0000a0 0d ae bb 3b 5c 77 83 36 7f 10 92 37 b0 b3 e3 3a
       0.0057275356 3.9179995e-06 1.7412238e-05 0.0017372277
0000b0 9f 3b 57 b7 b9 c1 89 31 da cc 06 3c 09 61 66 3b
       -1.282888e-05 4.0092485e-09 0.008227551 0.0035153052
0000c0 42 e9 08 b7 e5 d0 c1 b4 2b 97 96 b5 7e ec f0 bb
       -8.160541e-06 -3.6101042e-07 -1.1219867e-06 -0.007352411
0000d0 54 66 19 b6 a8 ee 5a af 61 f7 01 37 d6 d3 5a 35
       -2.285834e-06 -1.9911772e-10 7.746597e-06 8.151959e-07
0000e0 09 60 70 36 4c f4 64 2b e6 69 97 b2 17 3b b8 37
       3.5818687e-06 8.13409e-13 -1.762687e-08 2.1962025e-05
0000f0 13 7c 1e 38 70 c6 f1 35 9b 02 9d 3b 97 d5 62 38
       3.778569e-05 1.8013652e-06 0.0047915704 5.408152e-05
000100 95 2a ae 39 f7 a0 9c b8 19 6a 89 3a 54 40 75 3e
       0.00033219592 -7.468642e-05 0.001048389 0.2395032
000110 b5 1f 07 33 07 38 5c 39 3d 43 7b b9 a6 b0 3b 36
       3.1460974e-08 0.00021001707 -0.00023962274 2.7967994e-06
000120 c9 26 82 37 fc e5 9a b4 46 4c 65 b6 a5 12 23 bb
       1.5515268e-05 -2.885207e-07 -3.4168056e-06 -0.002488294
000130 be 55 9c 3b 69 b7 bc b6 5c ce 34 3a 84 2d 50 b9
       0.0047709635 -5.6241884e-06 0.0006897205 -0.00019853382
000140 05 2a d2 3a 78 cd 16 3b 24 ab 1a 3b 63 84 88 36
       0.0016034251 0.0023010653 0.0023600543 4.0685277e-06
000150 9f ff bc b1 10 df 44 39 e9 bd 80 b9 62 48 bc 34
       -5.500581e-09 0.00018775114 -0.00024555557 3.5070394e-07
000160 e6 25 af 39 0f 67 2b ba 17 b8 fb b1 30 06 74 34
       0.00033406838 -0.0006538489 -7.32599e-09 2.2726522e-07
000170 e4 18 a8 b2 ae ac 77 37 18 18 83 af 07 0e db 36
       -1.9569093e-08 1.4762552e-05 -2.384588e-10 6.5283416e-06
000180 dd 26 6f b5 8d 31 f7 3b 3c 57 b9 3a c1 c2 99 b9
       -8.909099e-07 0.0075437487 0.0014140378 -0.00029327537
000190 01 ea e3 3a e3 c4 5f b6 c9 fa 82 b7 8f 29 9c ba
       0.0017388464 -3.3344193e-06 -1.5613989e-05 -0.0011914241
0001a0 df 3f 54 36 45 e3 60 34 bd be ba 33 df 85 30 b9
       3.162764e-06 2.0944306e-07 8.695995e-08 -0.00016834539
0001b0 80 2a 29 39 a7 bd 51 b5 0d dc 36 34 26 f0 31 b8
       0.00016132928 -7.813455e-07 1.7030125e-07 -4.2423744e-05
0001c0 22 fc 00 3b 4a 9d dd 35 35 61 97 b9 e2 38 86 bb
       0.0019681533 1.651156e-06 -0.0002887339 -0.0040961364
0001d0 29 ff 17 36 a3 4b b9 b9 5d 00 13 b9 88 36 3e b8
       2.2649276e-06 -0.00035342303 -0.00014019148 -4.5350316e-05
0001e0 aa 3e dd 38 63 97 91 39 e4 8d b3 b5 af 8b d2 b6
       0.00010549773 0.00027769347 -1.3377835e-06 -6.274749e-06
0001f0 a7 1a 87 3b c9 9a 14 38 3f cd 8b 3b 69 f3 70 b5
       0.0041230503 3.5430105e-05 0.0042664106 -8.9761176e-07
000200 ed 4d 2e 38 ef 14 95 32 e5 c0 e0 b5 64 5d 1e b4
       4.1557407e-05 1.7355402e-08 -1.674544e-06 -1.4748872e-07
000210 c8 42 a5 3b 31 1e 9b 3b fc ee 5a 3a 36 cd ca 34
       0.0050433613 0.0047338237 0.00083516515 3.7774743e-07
000220 7a cb 03 3c 9f 87 10 38 c2 12 78 b5 16 2f 94 3a
       0.008044118 3.4458582e-05 -9.2414496e-07 0.0011305537
000230 ee 4f 6b b6 37 82 6f 33 41 93 6f b4 3a ad d6 3a
       -3.5064254e-06 5.5764954e-08 -2.231218e-07 0.001637853
000240 02 4a 3c b6 21 00 bc 39 e8 34 b9 3b d8 36 a8 32
       -2.8057261e-06 0.0003585825 0.005652059 1.9582714e-08
000250 99 57 fb b9 e7 01 53 38 22 01 11 b3 62 eb 83 3b
       -0.00047939716 5.0308092e-05 -3.3761474e-08 0.0040258626
000260 cb 84 16 3c 5e 06 24 b9 93 7a 61 36 13 0e 8d b5
       0.009186934 -0.00015642631 3.359896e-06 -1.0509415e-06
000270 66 f2 1d 3b 3b aa fa bb fa 19 21 bb 74 1e 87 b7
       0.002410078 -0.0076496876 -0.0024582134 -1.6107435e-05
000280 c9 7b 88 35 5f 43 b4 35 0e 2d 94 b1 ed 3e 83 34
       1.0168816e-06 1.3430653e-06 -4.312489e-09 2.4446436e-07
000290 51 bb 65 b6 50 ac 32 34 32 4a d9 38 6f ff 99 ab
       -3.4232692e-06 1.6640229e-07 0.00010361186 -1.0942201e-12
0002a0 4d c3 5d 35 f8 83 65 36 5e 58 ec b5 9b 38 a1 af
       8.2613116e-07 3.4200475e-06 -1.7609088e-06 -2.932595e-10
0002b0 c0 f2 92 39 8e 74 45 b9 c0 b7 af 3a 52 3c c7 39
       0.00028028153 -0.00018830804 0.0013406202 0.0003800118
0002c0 a3 12 43 b1 eb fd 90 3a 76 e5 0c b6 b2 2d 5f b9
       -2.8386828e-09 0.0011062002 -2.099519e-06 -0.0002128396
0002d0 2b 5f 78 35 25 26 46 33 55 68 85 b9 6a d9 d1 ba
       9.2525687e-07 4.613516e-08 -0.0002544547 -0.0016010229
0002e0 8a a6 8f 39 b2 bf 3b 39 92 61 c3 36 09 ca 6f b2
       0.00027399167 0.00017905122 5.8228115e-06 -1.3957568e-08
0002f0 ab 37 7f 3b 99 34 ce 39 39 79 b7 30 99 30 02 3c
       0.0038943093 0.0003933057 1.3349456e-09 0.007946157
000300 48 62 3d b6 f6 d8 d6 b4 0c 4a 6d b6 74 5d 59 b9
       -2.8220402e-06 -4.0018466e-07 -3.5358853e-06 -0.00020729547
000310 23 cc f2 b9 1f bc 7a ab 60 00 45 38 4d b5 dd 38
       -0.0004630993 -8.907891e-13 4.696881e-05 0.00010571871
000320 00 ca 1f 3c fa 94 0a b6 a1 26 59 bb 91 51 87 37
       0.00975275 -2.0650318e-06 -0.0033134597 1.6131236e-05
000330 79 1e 5b b7 89 d6 98 b6 53 fb a5 b9 d4 c9 57 36
       -1.3060512e-05 -4.554928e-06 -0.00031658504 3.2154976e-06
000340 60 14 52 b9 33 50 55 36 6c 40 c9 3b b5 9a 28 36
       -0.00020034751 3.1786155e-06 0.006141713 2.5124002e-06
000350 58 57 df 3b 47 58 84 b9 36 8c 3e b6 00 a2 80 b6
       0.006815832 -0.00025242774 -2.839382e-06 -3.8335565e-06
000360 35 fc b5 39 36 9d da 36 cf ac 18 bb 85 a0 1a b3
       0.0003471092 6.515208e-06 -0.0023296361 -3.600191e-08
000370 b6 fb 19 b5 85 2c c2 37 d8 11 aa 3b 3d 47 3d 34
       -5.736323e-07 2.3147333e-05 0.0051901154 1.7627913e-07
000380 2f 77 f1 b8 a6 e7 7a b1 8c ce 18 3b 4d 9a f3 b7
       -0.00011513975 -3.6511465e-09 0.002331647 -2.903971e-05
000390 2b 5a 9d 36 e8 19 04 bb 7a d1 18 b5 4a b9 73 3a
       4.6894615e-06 -0.0020157043 -5.692924e-07 0.00092973246
0003a0 a4 d9 de 3b 0b 95 70 39 d2 7a 70 b3 c2 e7 e8 37
       0.006800847 0.00022943706 -5.599106e-08 2.7764476e-05
0003b0 ae 17 91 3b b2 ff 9f 36 a0 9a d4 b6 b4 d6 05 b6
       0.0044278717 4.768336e-06 -6.336093e-06 -1.9943518e-06
0003c0 15 3f 6f 36 36 e7 af 38 a8 c2 4d 3b b0 5c 56 b8
       3.5650494e-06 8.387717e-05 0.0031396542 -5.1107898e-05
0003d0 67 67 99 b5 18 45 62 b7 ec 57 a3 34 27 63 8b 35
       -1.1429482e-06 -1.3486737e-05 3.0425088e-07 1.0385164e-06
0003e0 00 0e 72 39 5f d9 12 35 6c 1c 5d b7 97 da 2f 3b
       0.00023084134 5.4705555e-07 -1.3179244e-05 0.002683317
0003f0 d8 dd 21 3c 80 78 27 39 23 21 b1 b6 ea d8 a8 39
       0.009879552 0.00015971251 -5.2788687e-06 0.0003220507

B_w f4 [512]
000000 fd 7b 12 b8 dc 4f fe 37 51 66 6c 3b c2 14 ed bb
       -3.4924586e-05 3.0316347e-05 0.0036071728 -0.0072351405
000010 6d 06 89 0a af 9e c2 3c 14 40 46 b3 ce 4c 49 33
       1.3195037e-32 0.023757307 -4.6158746e-08 4.6868813e-08
000020 c2 58 d6 3d 29 4d 1a 3a 3d 5e c2 3b ea 4b 33 b8
       0.10466148 0.00058861315 0.0059316442 -4.2747626e-05
000030 df 81 51 3d d9 f6 98 31 f6 18 bc bc 10 58 94 3d
       0.051149245 4.4518456e-09 -0.022961121 0.07243359
000040 cc f9 af 3b 33 4a 42 3d 93 b4 82 39 69 9a 81 39
       0.0053703543 0.047434043 0.0002493007 0.00024719842
000050 6e f9 4a b7 90 7a 98 b8 ef 86 15 3d c1 84 83 bb
       -1.2098213e-05 -7.270754e-05 0.036505636 -0.0040136282
000060 ab 7e 63 bc 91 b2 76 3d c3 95 6c 3c 75 7d 0d bb
       -0.0138851805 0.060228888 0.014440003 -0.002158967
000070 25 67 b9 b8 ff 62 24 3b 77 d6 38 3d e0 ac 5e 3d
       -8.8406996e-05 0.002508342 0.045126405 0.054364085
000080 e9 b7 b0 3b 5c 55 51 3e 7b b9 97 bd d3 eb 80 bc
       0.0053930175 0.20442718 -0.074084245 -0.01573745
000090 0f e0 12 bd 06 e7 ca 3b 43 cd 05 3f 1f 0a 2e ba
       -0.03585821 0.006192091 0.5226633 -0.00066390814
0000a0 ca b1 22 ba e4 0f d0 37 c0 96 b9 3c 2b 66 51 3a
       -0.0006206302 2.4802932e-05 0.022654891 0.00079879415
0000b0 34 6e c3 b7 f7 7c 0c ba 74 b8 23 89 6b 09 cc 3c
       -2.3297129e-05 -0.00053591974 -1.970714e-33 0.024906835
0000c0 81 18 70 be af 61 07 b2 82 4d e2 3a ec 7e 41 3b
       -0.23446847 -7.880245e-09 0.0017265531 0.0029525114
0000d0 7f c2 63 3e ef d9 e6 39 e1 f8 12 bb 68 8f 12 3b
       0.22242163 0.00044031392 -0.0022426175 0.0022363309
0000e0 0d 7b 58 3d 1f ce 82 3d b1 48 37 38 ae 60 96 bc
       0.052851725 0.06386971 4.36983e-05 -0.018356647
0000f0 27 fd 92 37 dc 79 47 bc aa fb d3 b9 7d d4 1f bd
       1.752244e-05 -0.01217505 -0.0004043256 -0.039021004
000100 63 7a 6f 39 2a 6b 46 ba 7c 13 26 36 26 86 19 3e
       0.00022838409 -0.0007569069 2.474727e-06 0.1499258
000110 27 0b b4 be b9 e2 dd bd 70 c5 28 3a 41 43 89 bc
       -0.3516476 -0.108342595 0.0006438112 -0.016755702
000120 35 a2 8f 3c 99 18 d4 37 da 63 71 3d c7 2f e2 09
       0.017533401 2.5283824e-05 0.058933116 5.445245e-33
000130 3b f7 0d 37 46 77 bc 3d 6d 1c dd 3a 24 94 f4 ba
       8.461818e-06 0.09202437 0.0016869433 -0.0018659872
000140 6e 25 02 3d 0b 07 97 b8 64 ff 92 3b 2d be 9d 35
       0.031773977 -7.201553e-05 0.0044860113 1.175276e-06
000150 77 8e ad 3a 4d 7d e3 39 3c cb e4 b0 fe 5a 28 bf
       0.001324131 0.0004339017 -1.6646946e-09 -0.65763843
000160 a9 ef c4 3b ef c2 87 bc e7 db 55 3d de 27 20 3d
       0.006010015 -0.016572444 0.05221167 0.03910052
000170 8d 65 18 3c 41 b3 63 bc 21 40 3e 37 3f 69 80 b9
       0.009301555 -0.013897718 1.1339814e-05 -0.00024492477
000180 16 d7 15 bc f6 a7 3a b9 d6 88 19 31 e1 7e 12 37
       -0.009145519 -0.00017800913 2.2342213e-09 8.731819e-06
000190 14 11 18 38 65 b1 d3 3b 05 3b 11 bb e6 a3 e4 3b
       3.625553e-05 0.006460356 -0.0022160423 0.006977546
0001a0 b8 1b 70 3a 40 de 5f bb e6 53 03 3d c7 56 21 3c
       0.0009159404 -0.003415957 0.032062434 0.0098473495
0001b0 7d 01 e7 3d 31 bf 6e bc eb 1e 0b 36 30 70 b7 bb
       0.11279581 -0.014571951 2.073061e-06 -0.0055980906
0001c0 0e 0f 6a b8 a9 61 9f bb 6f 45 0b ba 18 b8 c2 3c
       -5.580397e-05 -0.004863937 -0.00053127756 0.023769423
0001d0 55 3a 5c 35 b1 2f 61 3e e2 67 df 3b da fd 15 38
       8.204127e-07 0.21990849 0.0068178037 3.5760786e-05
0001e0 f9 18 3a 34 58 3e b8 bb 1e f8 04 ba ec d9 c8 3b
       1.7331685e-07 -0.0056226663 -0.0005072373 0.006129494
0001f0 9f 6d 1a 09 c0 58 69 bb 9b f3 42 be 79 70 21 bd
       1.858862e-33 -0.0035605878 -0.1903824 -0.039413903
000200 14 80 9d bb 53 49 dc bc 17 07 50 3c 70 92 ab ba
       -0.004806528 -0.026890432 0.012697003 -0.0013089906
000210 fa 8e 2d bb 45 cd ac 3d f6 88 8d bc a8 9d cd b9
       -0.0026482926 0.084375896 -0.017277222 -0.0003921811
000220 ae e9 14 3a 31 07 e6 39 e1 70 12 3c 06 b5 92 bb
       0.0005680573 0.00043874377 0.008938045 -0.004477146
000230 f2 ce 47 37 1f 77 03 3c ba bd 60 3c 5b e9 0a 3d
       1.19095075e-05 0.008024006 0.013717109 0.03391395
000240 75 c3 e8 3a df 1d 16 3b cc 90 2b 3c 36 20 dd 3b
       0.0017758446 0.0022905988 0.010471534 0.0067482246
000250 7b b1 f6 34 6f d0 98 b8 b2 f7 c0 bc e7 0c 44 3d
       4.5950205e-07 -7.2867486e-05 -0.02355561 0.047863867
000260 5f c6 6f b6 ec 0f f0 39 14 23 06 bc 38 1a 17 bd
       -3.5729242e-06 0.0004578823 -0.008187074 -0.03689024
000270 6a 79 4f b7 4d 08 04 bf fa 1f 1e 89 e8 77 e2 3c
       -1.236643e-05 -0.51575166 -1.9033594e-33 0.027645066
000280 73 ee 21 b9 21 d6 b5 b5 35 e6 14 3d f6 52 29 3d
       -0.00015442986 -1.3547871e-06 0.036352355 0.041338883
000290 ac cb 57 3a a4 b0 34 bd 3e 38 16 b9 07 39 0f bc
       0.00082319486 -0.04411377 -0.00014326067 -0.008741624
0002a0 c5 e4 b1 bb ab 84 3e b6 47 61 f7 3c e2 05 fb 39
       -0.005428883 -2.838943e-06 0.030197753 0.00047878834
0002b0 f7 17 ac b8 1f 00 86 39 3c 43 c1 3a 0f b2 a4 35
       -8.206063e-05 0.00025558562 0.0014744769 1.2270774e-06
0002c0 22 7a 2c 32 9d 7e 15 b8 5e 89 d5 b9 07 ab e5 bc
       1.00394875e-08 -3.5642286e-05 -0.00040728872 -0.028035654
0002d0 a7 94 07 39 52 4c 01 3d ff a4 32 bd 71 7f c8 bd
       0.0001292998 0.031566925 -0.043614384 -0.097899325
0002e0 3f de d8 35 c2 b9 7c 3b 82 71 9b b6 9d cf 68 b1
       1.6157936e-06 0.0038562869 -4.632574e-06 -3.3878458e-09
0002f0 eb 0c 14 bb bc 82 a3 bd 36 34 4d b5 c0 cd f7 8a
       -0.0022590708 -0.0798392 -7.644443e-07 -2.386263e-32
000300 4f 48 d4 3a 06 2d 73 b9 a3 a9 b5 34 61 fc 53 38
       0.0016195866 -0.00023191058 3.3837304e-07 5.0541366e-05
000310 d1 5c 40 bc c0 5f 4e b8 af df 3c 3e 5a b9 56 36
       -0.011740879 -4.92034e-05 0.18444704 3.1996374e-06
000320 02 bf f3 3a 02 9e 5a 3d 53 de f9 bb db 8c 89 35
       0.0018596353 0.053373344 -0.00762538 1.024829e-06
000330 42 6a 0a ba 5b ab 52 3d 3f e8 2c 36 a2 f0 5a 32
       -0.0005280116 0.05143295 2.5765182e-06 1.2743984e-08
000340 64 f4 f2 3b 3a e7 d1 36 9c 6d 65 b9 cc ce 74 37
       0.0074143875 6.2556037e-06 -0.00021879975 1.4591682e-05
000350 a7 dc 9e 3b e6 4e 10 3b 7b 33 db 36 80 84 95 b6
       0.004848081 0.0022019683 6.5327017e-06 -4.455971e-06
000360 eb 3d 62 33 2c 26 68 3d ee d4 3a 3a c6 93 87 3d
       5.267604e-08 0.05667703 0.0007127066 0.066199824
000370 34 48 80 3d f5 29 b7 3b 55 36 0b 3d 57 4f 9a 39
       0.06263772 0.0055897185 0.033987362 0.00029432282
000380 e3 d6 61 ba a2 f6 8c b6 b0 ca 83 09 da 95 41 bc
       -0.00086150895 -4.201037e-06 3.172771e-33 -0.011815513
000390 29 e1 98 37 7e a8 40 3d b4 4a b3 ba 65 cb 01 3d
       1.822466e-05 0.047035687 -0.001367888 0.031688113
0003a0 59 25 11 3b e8 68 0c 3e 99 ee ff b3 24 26 ea b5
       0.0022147505 0.13711894 -1.19177635e-07 -1.7445459e-06
0003b0 2e 25 99 b8 52 9b aa b6 b2 a2 cb 34 00 af 0f bb
       -7.302534e-05 -5.0844765e-06 3.7930073e-07 -0.0021924376
0003c0 4c 99 00 3d 5f 11 a1 3b 5e 12 00 b6 fc eb 26 ba
       0.031396195 0.004915401 -1.9084177e-06 -0.0006367562
0003d0 e9 fb cd bd ca 27 f1 39 be bb 89 3c bc 5a d7 b5
       -0.10057814 0.00045996747 0.016813155 -1.6045155e-06
0003e0 b0 9a dd ba 24 84 95 3d ea d8 0b 8b 43 fd 05 ba
       -0.0016907062 0.073005944 -2.6933614e-32 -0.00051112863
0003f0 7d 86 3d 3e a3 50 1f bb 7b 6a 96 bb c2 1f 4a bc
       0.18508334 -0.0024309538 -0.00459033 -0.012336673

C_w f4 [512]
000000 e7 6a ff bb 3a bb ff 3b dd dd fd bb 1a b7 fe bb
       -0.007794726 0.0078043016 -0.0077473954 -0.0077732923
000010 ba c8 09 bd 14 0e ff bb ae 97 fe bb 79 61 fd 3b
       -0.033638693 -0.0077836607 -0.0077695465 0.007732567
000020 2a a1 fe bb 3f 6c de 3b 94 37 fe bb 3b 41 f2 bc
       -0.007770677 0.0067878063 -0.0077580903 -0.02957212
000030 8c 15 c4 bd 09 bc fd bb 0e 3e ff bb cf 93 24 3c
       -0.09574422 -0.007743363 -0.00778938 0.010045006
000040 da e2 f6 3b 41 5f fd bb 9c 95 fe bb 00 e7 fd 3b
       0.007534367 -0.0077323024 -0.0077692997 0.0077484846
000050 a3 bc fd 3b 2d b1 ff bb 7f fa fe 3b 04 2a ff bb
       0.0077434345 -0.0078031034 0.0077813263 -0.007786991
000060 11 be fe bb cb 08 fd 3b c7 3d 9e bd 8f 52 fe 3b
       -0.0077741225 0.0077219955 -0.07726627 0.0077613066
000070 c2 4e fd bb 90 59 ff 3b 31 6d fd 3b eb 0f 00 bc
       -0.007730336 0.007792659 0.007733964 -0.007816295
000080 db 03 fd 3b 7e 4b fe 3b 99 57 fd 3b 49 65 ff bb
       0.007721407 0.007760464 0.0077313897 -0.0077940566
000090 e6 40 fe 3b c4 2d fe 3b c4 e8 2e bd 1c 07 fe 3b
       0.0077592013 0.0077569205 -0.04270245 0.0077523123
0000a0 90 ee fe 3b 2e da bc bc d9 90 ff bb 91 ff 5b bc
       0.0077799037 -0.023053255 -0.0077992496 -0.013427631
0000b0 cb 32 00 bc 08 47 fe 3b 7d 6e 00 3c 67 98 fe bb
       -0.00782461 0.0077599324 0.007838842 -0.0077696326
0000c0 98 2d fe bb 93 70 0f bc 72 9d fb bb 67 95 fe 3b
       -0.0077569 -0.008754867 -0.007678681 0.007769275
0000d0 86 ee fd 3b 9f 8a fd bb e9 7c de bb 19 70 fd bb
       0.0077493815 -0.007737472 -0.006789793 -0.0077343103
0000e0 fd a4 fd 3b 89 e0 fd 3b fd 5f ed bc 93 15 fd 3b
       0.0077406154 0.007747714 -0.028976435 0.007723519
0000f0 11 79 ec 3b c9 db fd 3b 6f 19 ff bb 76 17 ff 3b
       0.0072165807 0.0077471477 -0.0077850143 0.007784779
000100 96 cd bb bc 7f 81 fc bb c9 f3 22 bc 08 fa 47 bf
       -0.02292518 -0.007705867 -0.009945818 -0.7811589
000110 4d 98 ff 3b 48 d1 fe bb 14 29 fe 3b 90 44 ff bb
       0.007800138 -0.007776413 0.0077563617 -0.0077901557
000120 e4 6a 17 bc d1 a3 ff bb 07 1e fe 3b 9f a5 04 bd
       -0.009241793 -0.007801511 0.0077550444 -0.03238451
000130 ea 9c fc 3b b1 42 82 3c 83 1d fe bb cd 8d fd 3b
       0.0077091353 0.015900942 -0.007754983 0.0077378512
000140 59 ef 7e bd 73 2e 34 3c 2b b2 fc bb b8 76 fd bb
       -0.06223998 0.0109974025 -0.007711669 -0.0077350996
000150 d1 56 05 bc 2d 11 fd bb a9 38 fe 3b 76 65 13 bd
       -0.008138374 -0.007722995 0.0077582193 -0.035985433
000160 33 8b fd 3b 44 ae fd bb 7c f2 fc bb f7 d9 fd 3b
       0.007737541 -0.0077417213 -0.007719336 0.0077469307
000170 17 ba fd bb 0f e4 ec bb c2 1f ff bb b5 30 ff 3b
       -0.007743131 -0.007229335 -0.0077857682 0.0077877888
000180 e1 e8 ff bb 8a c9 fe bb ff 5f fe bb 39 a1 fe 3b
       -0.0078097438 -0.00777549 -0.0077629085 0.007770684
000190 52 89 fd bb f4 29 fe 3b 75 5f fd bb 20 e5 fe 3b
       -0.007737317 0.007756466 -0.0077323266 0.0077787787
0001a0 2e 1a fe bb 8f 1e ff 3b c1 ec fc bb 98 28 fd bb
       -0.0077545857 0.0077856253 -0.007718653 -0.0077257864
0001b0 fa 14 fe 3b 5b 21 fc bb aa d0 f9 3b e9 0c 01 3c
       0.0077539654 -0.007694406 0.0076237516 0.007876613
0001c0 d5 6b fe 3b 8f 17 ca bc 5b e5 fd 3b bc 82 00 3c
       0.0077643194 -0.024669437 0.0077482886 0.0078436695
0001d0 a6 d9 fe 3b 6d 64 f1 bb 99 19 00 3c 48 36 fe bb
       0.0077774106 -0.007366708 0.007818603 -0.0077579357
0001e0 a1 83 fd 3b 04 0f fd 3b 26 10 ff bb 87 6b fe bb
       0.0077366387 0.0077227373 -0.0077839075 -0.007764283
0001f0 99 56 00 bc 4b 29 fe 3b bd 2b 9f bd 0b 44 fe 3b
       -0.0078331465 0.0077563873 -0.07772014 0.007759576
000200 71 8f 00 bc 29 bf fe 3b 1f 6b 00 bc 35 9d ff 3b
       -0.007846699 0.007774253 -0.00783804 0.007800723
000210 a2 26 ff 3b 96 1d ff 3b c1 c5 fe 3b e1 8d fd bb
       0.007786588 0.0077855093 0.007775039 -0.0077378605
000220 54 d7 02 bc 70 5e ff bb 5d fd fc bb 10 a5 fe bb
       -0.007985909 -0.0077932402 -0.007720633 -0.007771142
000230 22 a1 ff bb a4 10 53 bc 58 1b 00 bc 47 38 00 bc
       -0.007801191 -0.012882385 -0.007819019 -0.007825918
000240 ec 2b 00 bc 22 6c fe bb bb 5f fe bb 15 76 fe bb
       -0.007822972 -0.0077643553 -0.007762877 -0.0077655413
000250 9f 1a ff 3b 74 d9 fd bb 20 e9 fd bb f2 fa 44 bd
       0.007785156 -0.0077468697 -0.007748738 -0.048090883
000260 f6 af fd bb f7 c7 fe bb 3f 0e fe 3b 4a 5a ff 3b
       -0.0077419234 -0.0077753025 0.007753163 0.0077927457
000270 c6 f3 fe 3b a4 3d 2e bd 27 d4 2f bd ce 12 00 bc
       0.007780525 -0.042539254 -0.042926934 -0.007816983
000280 c7 90 fe bb 31 ba fe 3b 4c b9 00 bc 7e c7 f1 bb
       -0.0077687236 0.0077736606 -0.007856678 -0.0073785177
000290 56 7a f7 bb 64 1b ff bb 77 1f 00 3c 27 65 fe 3b
       -0.0075524254 -0.0077852476 0.007820002 0.007763523
0002a0 4b 44 ff 3b 04 ee fe bb 80 b1 ff 3b 14 57 00 3c
       0.0077901236 -0.0077798385 0.007803142 0.007833261
0002b0 0b 8c fe bb 49 f0 0c 3c 35 39 07 3c 56 49 fe 3b
       -0.0077681593 0.00860221 0.008253385 0.007760207
0002c0 d2 41 00 bc 50 44 ed bb 59 00 00 3c 3e 60 fd bb
       -0.007828193 -0.0072408095 0.007812583 -0.00773242
0002d0 0f 03 fe 3b 5e 74 00 3c 12 53 fb 3b dd 9d ff bb
       0.0077518295 0.007840244 0.007669815 -0.007800801
0002e0 89 6e fe bb 65 8f d0 bd 6b bd 32 3c 80 64 00 3c
       -0.0077646417 -0.101836 0.010909419 0.007836461
0002f0 45 c3 b0 bd 9d ad ff bb 8a 3d ff bb 57 9e 29 bc
       -0.08630995 -0.0078026787 -0.0077893184 -0.010352693
000300 e1 b5 fd bb 82 6d ff 3b 8b e4 fd bb 52 3e fe bb
       -0.007742629 0.007795037 -0.0077481917 -0.007758894
000310 9a f9 fd bb c7 77 ff bb d8 b9 1a bc 3a 37 ff 3b
       -0.007750702 -0.007796261 -0.009443723 0.007788566
000320 a0 83 fd 3b 7d e3 fc bb 3d 55 ff bb 2c fe fe 3b
       0.007736638 -0.0077175484 -0.0077921436 0.0077817645
000330 39 c6 fd 3b a1 5a ed bb aa 53 ff 3b bb ae ff 3b
       0.0077445772 -0.00724347 0.007791956 0.007802812
000340 4e d4 fe bb 7c d2 fe bb 41 63 fd bb e4 2c 00 bc
       -0.0077767735 -0.0077765565 -0.0077327793 -0.007823203
000350 fd 97 fe bb 63 34 00 3c b7 7c fe bb e7 6c fe bb
       -0.0077695833 0.00782499 -0.007766332 -0.007764447
000360 b5 b1 e4 bb 03 d8 fe 3b 3d 26 fe 3b 60 8c ff 3b
       -0.006979192 0.0077772154 0.007756023 0.0077987164
000370 42 db fb 3b 4a 3a ff bb d0 83 ff 3b 04 22 00 bc
       0.0076860497 -0.007788931 0.0077976957 -0.00782061
000380 6a 4c 00 3c d7 3b 0a bc 6a 99 d1 bd 63 58 ff bb
       0.0078307185 -0.0084371185 -0.102343395 -0.007792519
000390 25 d9 fe 3b e3 e2 fe 3b 51 93 fe 3b fe 67 fe bb
       0.0077773505 0.007778512 0.0077690263 -0.0077638617
0003a0 c4 89 fc bb 8f 7c ff 3b 8c 78 e9 bb bf 46 ff bb
       -0.0077068526 0.007796831 -0.007124966 -0.007790416
0003b0 22 e0 f1 3b d8 fb fe bb 5b d2 ff 3b d7 cc ff 3b
       0.007381455 -0.007781487 0.0078070587 0.0078064012
0003c0 db c6 fe bb c5 d3 e7 3b fe c6 fe bb fe c1 56 bc
       -0.0077751703 0.0070748054 -0.0077751866 -0.013107775
0003d0 ab 9a fc bb 95 f4 fe bb f8 95 ff bb 53 34 ff 3b
       -0.0077088675 -0.0077806213 -0.00779986 0.00778822
0003e0 77 eb fd 3b 84 45 63 bc ba a6 00 bc ba 9a ff 3b
       0.007749017 -0.013871554 -0.007852251 0.0078004273
0003f0 b6 b2 fe 3b 12 f7 fd 3b 2d ce 2c 3c 6a 24 00 bc
       0.007772769 0.0077504003 0.010547203 -0.007821182

D_w f4 [512]
000000 b6 15 4a b8 a1 79 92 ba 7f 53 d0 3a 66 0f 10 39
       -4.8180773e-05 -0.0011175164 0.0015894024 0.00013738647
000010 a8 dd 0d 3d cc ac 8d bb ce 00 14 b9 c7 4c 36 3a
       0.034635216 -0.0043235775 -0.0001411468 0.000695419
000020 0f 13 86 bb 2e fe 36 bc 9f dc cf bb e2 e9 b1 3b
       -0.0040916274 -0.011169 -0.0063434388 0.0054294923
000030 e1 1b 3c bc cd 75 e1 ba aa ec 0c bc cd 80 f7 ba
       -0.011481256 -0.0017201245 -0.008601347 -0.001888299
000040 c7 0f a1 bc 87 8d 42 3c cf c3 1f 3c 22 6f b9 ba
       -0.019660844 0.011874563 0.009751274 -0.00141475
000050 f3 96 91 bb ad 9a c1 3a a3 e4 a3 39 09 2d 05 3c
       -0.0044430434 0.0014770828 0.0003126013 0.008128413
000060 37 fc cf 3b 67 ef 54 bc 42 3c 09 3c 18 2e 90 bb
       0.006347205 -0.012996531 0.008376183 -0.004400026
000070 ee 20 26 3b 2a 5b b4 ba 8d ba 85 bb 12 ff 24 3b
       0.0025349217 -0.0013760079 -0.0040810765 0.0025176448
000080 27 5a 81 bc 83 e2 43 bc 51 7c 27 bc 53 49 e3 3b
       -0.015790058 -0.01195586 -0.01022251 0.006936231
000090 22 a6 91 bb 2c 3e 3d 3b 9f 75 b9 bb 85 38 be ba
       -0.0044448534 0.0028876169 -0.0056597735 -0.0014512694
0000a0 78 59 1e bb 4d 71 8c 3c e6 d5 38 bb 22 a1 4e bb
       -0.0024162214 0.01714387 -0.0028203665 -0.0031529148
0000b0 75 44 76 3b 41 d0 f3 bb d2 1b ce bb a7 2b c0 ba
       0.0037577425 -0.0074405973 -0.0062899375 -0.0014661447
0000c0 45 b2 64 3c 5a 3c 84 bb 2f 1f 92 3a 04 31 a7 bc
       0.013958518 -0.004035515 0.001114821 -0.020409115
0000d0 42 7a 3f bb e3 c3 1a 3c 6f 6e 0a 3b 02 cd d2 3a
       -0.0029217158 0.009446117 0.0021122952 0.0016082826
0000e0 ba 54 db ba e3 c5 ae 3c 84 cf a6 3b df f2 be bb
       -0.0016733625 0.021334594 0.0050906558 -0.0058272923
0000f0 74 35 50 3c f5 3f 3b 3b 3a d1 54 3c 50 bf d7 bb
       0.012708057 0.0028572057 0.012989337 -0.0065840855
000100 f5 8e b7 3c 0e 0f b9 b8 ae 7d 8b 3c c7 43 3e 3c
       0.022407034 -8.8242916e-05 0.017027702 0.011612839
000110 79 33 9f bb bb d0 1e 3b 94 ec 17 bc 28 4a c4 3b
       -0.004858431 0.00242333 -0.009272713 0.0059902854
000120 59 10 01 3c 4e 7c 37 bb 7f d0 42 bb ef b1 cc 3c
       0.007877433 -0.0027997675 -0.0029726324 0.02498719
000130 3e 36 95 bb a0 4c 56 3b 36 55 27 3b ee 99 37 bb
       -0.0045535853 0.003269948 0.0025532967 -0.0028015333
000140 9f 0b aa bb eb bd 7a bc 86 7e 8f 3b 50 02 6b 3b
       -0.0051893736 -0.015304069 0.0043790964 0.0035859533
000150 79 48 8c 3c 88 ee 92 ba 70 6a 49 3c df d8 60 3c
       0.017124401 -0.0011210004 0.012293443 0.013723581
000160 96 fd 1c bc 36 0a 37 ba 38 25 5f bb f5 b1 0c bc
       -0.009581944 -0.00069824175 -0.0034049284 -0.00858735
000170 95 9f e4 3b 68 d9 60 3b 92 55 62 3c 6d 54 89 ba
       0.0069770315 0.0034309272 0.013814347 -0.0010477431
000180 c2 0d 0d bb dd 0e c5 b9 a4 d6 a3 bb 5c 3f f2 3a
       -0.0021523093 -0.00037585842 -0.0049999524 0.0018482017
000190 b9 c2 7e 3b 2b 4f ba bb 71 76 b7 3b 18 1e c9 bb
       0.0038873388 -0.005685707 0.005598836 -0.0061376207
0001a0 9d d8 9f ba 24 02 e6 3b dc f3 28 bc 74 98 1e bc
       -0.0012195293 0.007019298 -0.010312047 -0.009679902
0001b0 b0 11 8d bb 73 06 9b 3b 68 4e 90 bb 6d 15 f2 3a
       -0.004305087 0.0047309934 -0.004403878 0.001846952
0001c0 4c 55 35 bc 89 e3 1f 3c bd 15 7a ba 63 47 84 bc
       -0.0110677 0.009758838 -0.00095399824 -0.016147321
0001d0 08 aa 85 bb 6c 39 54 3c 63 00 ee 3a ab 54 6f 3b
       -0.004079107 0.012953144 0.0018158074 0.0036518972
0001e0 9c d6 d4 bb 75 6c 53 bc 9b 1a 00 3c ce 3b b0 bb
       -0.00649531 -0.012904276 0.007818843 -0.005378223
0001f0 9d bb dc 3b de 93 13 b5 7c 4e 77 bb 6b 58 d2 bb
       0.0067362324 -5.497694e-07 -0.003773599 -0.0064192316
000200 c0 53 9d 3c 76 8a 0a 39 24 a1 7a bb bc 48 cf 39
       0.019204974 0.00013212286 -0.003824302 0.00039536308
000210 49 1b a2 3b d5 99 f2 ba fa 68 02 3d fc 28 6c 3c
       0.0049471003 -0.001850898 0.031838395 0.014414068
000220 39 81 9a 3c 00 30 49 bb cb ad e5 3b c4 66 e8 3b
       0.018860446 -0.0030698776 0.007009243 0.0070923287
000230 de f5 62 3c 8a fb 5e 3c 66 c7 1b 3c 1d 4d b2 bb
       0.013852565 0.013609776 0.0095079895 -0.0054413215
000240 65 b5 86 3b 4f 42 b3 bb 2d f3 b4 3b fc e0 5e bb
       0.0041109794 -0.005470551 0.005522153 -0.0034008613
000250 0e 6a 1e bb 20 9b 37 bc 08 e0 d5 3b 00 79 c9 3b
       -0.00241721 -0.011206418 0.0065269507 0.0061484575
000260 74 2e 2a 3b a4 ad 68 bb ea bf 1f b6 33 19 30 bb
       0.002596763 -0.0035503889 -2.3804555e-06 -0.0026870489
000270 dc 96 0b bc 5f ec 2f 3b c7 e1 45 bc fa 96 e0 ba
       -0.008519854 0.002684377 -0.012077755 -0.0017134838
000280 5a 38 05 3c e4 6c 90 bb c9 7c 3f 3c bd 85 98 3c
       0.008131111 -0.004407512 0.011687466 0.018618459
000290 e4 e4 3c 3c 68 b7 cf 3b 18 8c fa b9 6f 21 44 bb
       0.011529181 0.0063390024 -0.00047788094 -0.0029927155
0002a0 00 a1 fe 39 08 0c 09 ba 3d 49 4a 3a b4 8e b1 3a
       0.0004856661 -0.0005227928 0.0007716602 0.0013546557
0002b0 92 1a e9 ba bb 7d 98 bb 80 39 92 bb 36 af 14 bb
       -0.0017784408 -0.00465366 -0.004462421 -0.0022687442
0002c0 3b 5e a1 b9 2b 84 15 3c a4 e2 17 bc a4 0d 58 3b
       -0.0003077852 0.00912575 -0.009270344 0.0032967115
0002d0 0c 27 b1 bb ac 2c dc ba 0b 54 21 bc 0a c1 80 ba
       -0.005406266 -0.0016797981 -0.009846698 -0.0009823155
0002e0 18 cf 96 3b 86 2b a0 bb 7a 4e aa bb d9 32 39 bc
       0.004602324 -0.004888001 -0.0051973434 -0.011303627
0002f0 19 7c f2 39 ca ce c1 3b 01 2d f5 3b 6e 73 bf 3c
       0.00046250297 0.0059145438 0.0074821715 0.02337047
000300 51 b9 39 3c ff 71 fc bb 17 27 5f ba d6 45 8e ba
       0.011335687 -0.007704019 -0.00085126 -0.0010854553
000310 76 63 e4 b9 18 4c c6 3a 10 57 9b 3c 84 8f ad bc
       -0.00043561653 0.0015128879 0.018962413 -0.021186598
000320 4c 06 f9 3b 68 ef a1 3b 4a 0d 83 3b be 6c 81 3b
       0.0075996276 0.0049418695 0.003999387 0.0039497307
000330 08 78 3c bc f7 32 08 3c a1 0d bc 39 2e dc 50 bb
       -0.011503227 0.008312932 0.0003586831 -0.0031869519
000340 c9 b8 b1 ba 99 ba 20 3c 96 2c 4b 3b 56 d4 9a 3c
       -0.0013559099 0.009810113 0.0031001917 0.018900078
000350 1d a8 94 3a 59 d5 78 bb 62 0e 62 ba 9c 3e 47 3c
       0.0011341606 -0.0037968962 -0.0008623359 0.012160923
000360 d3 c0 3d 3c e2 21 aa ba ef 5f 32 bc 88 82 e6 bb
       0.011581617 -0.0012980069 -0.01088713 -0.0070346035
000370 12 86 93 bb 9e f1 18 3c 34 1d 14 bc ed 68 9f ba
       -0.0045020664 0.00933495 -0.009040166 -0.0012162008
000380 76 c7 49 ba 2d 95 9d 3c b5 e5 a0 bc 0e 3e 85 3c
       -0.00076972635 0.019236172 -0.019640783 0.016264942
000390 2c d3 a8 b9 8c dd ec bb 8a 31 76 bb 3c fd a5 3b
       -0.00032200792 -0.007228559 -0.0037566149 0.0050655883
0003a0 e2 20 d1 ba c9 cc 72 bb f8 83 9d 3b 32 34 0b 3c
       -0.0015955234 -0.003704833 0.0048069917 0.008496331
0003b0 90 51 a5 bc fb 2f 18 3b ca a1 7b 3b 60 20 62 bc
       -0.020180494 0.0023221958 0.0038395994 -0.013801664
0003c0 c5 91 87 3b 24 01 45 bb d0 aa 88 bb fb f5 5f 3c
       0.00413725 -0.0030060494 -0.004170753 0.013669486
0003d0 5f 80 73 3c 48 c3 61 3a 8e 30 8b b9 73 76 48 bc
       0.014862149 0.0008612168 -0.00026548322 -0.012235272
0003e0 dd c1 21 bc 8e fe 08 39 e9 ea 10 3c 6f 13 07 3c
       -0.009872881 0.000130648 0.008845069 0.008244379
0003f0 06 4e 3e bb 7f f5 07 3b 54 09 24 bc f8 a7 52 bc
       -0.0029038205 0.0020745692 -0.01001199 -0.01285743

E_w f4 [512]
000000 f4 21 0f bb c7 2e 19 bc aa dd 1d bc ba 22 0c bc
       -0.0021840306 -0.0093495315 -0.009635368 -0.008553201
000010 f6 1b 38 3d 52 1a 64 3c af 03 a8 3b de 78 02 3c
       0.04494854 0.013922291 0.0051273922 0.007963387
000020 9a bf ae 3c f8 70 5d bb b4 c8 9a bc e2 b0 1a 3b
       0.021331597 -0.0033789258 -0.01889453 0.0023603966
000030 70 a9 97 bb 5d 08 6e 3b 60 bd 75 ba 98 66 10 3d
       -0.004628353 0.0036320903 -0.00093742274 0.03525409
000040 1e 1b 2b bd 84 c1 2f 3d ee 91 e9 3b 15 71 50 bc
       -0.041773908 0.04290916 0.007127992 -0.012722273
000050 a6 2b 85 bc e6 fe 2d bc ab 6d 33 b9 70 41 b5 bb
       -0.016256165 -0.010619855 -0.00017111625 -0.0055314824
000060 96 12 fd bc 58 ac 96 bc 7b 34 52 ba 62 33 05 3b
       -0.030892652 -0.018392727 -0.00080186845 0.0020324816
000070 ef e2 2f 3c 30 1a cd bb b7 7f 93 bb eb cf 95 3c
       0.0107352575 -0.0062592253 -0.004501309 0.01828762
000080 b5 84 78 bb 7b 26 09 bd 36 d0 68 ba 05 93 92 bb
       -0.0037920896 -0.033483963 -0.00088811235 -0.0044730925
000090 c2 ef d1 3b 76 1b 80 bb 4a fe 90 bb 8a 23 c4 bc
       0.006406755 -0.0039095236 -0.004424845 -0.023942728
0000a0 cb 5a bf 3c f4 7d 12 3d 2e 20 ac bb 03 b7 85 bc
       0.023358723 0.03576465 -0.0052528596 -0.016322618
0000b0 ad 49 a9 3a 46 a9 ab bc 83 99 72 3c 08 01 93 3b
       0.0012915634 -0.02095474 0.014807108 0.004486207
0000c0 54 3c 02 3d ec 71 16 bc 0f ca db bb b2 ee 12 bc
       0.031795815 -0.0091824345 -0.006707437 -0.008968042
0000d0 30 52 a3 bb 29 df db bb 32 b2 82 3c 56 1f 21 3c
       -0.0049841627 -0.0067099524 0.01595411 0.009834131
0000e0 05 84 db b9 42 c3 b2 3c 1f e8 99 3c 87 12 dd bc
       -0.00041869297 0.021821622 0.018787442 -0.026986374
0000f0 68 85 0c 3c e0 ec d9 bb 75 4d 6d 3c 81 0d e9 bb
       0.008576728 -0.006650552 0.014483799 -0.0071122055
000100 96 b2 8b 3c ae ca 95 bc 9c 60 b4 3b a4 8d 14 3d
       0.01705293 -0.018285122 0.005504681 0.03626789
000110 7a d8 06 bd 32 65 9e 3c 8f 21 80 bc 6b 4c 7d 3b
       -0.032921292 0.019335363 -0.015641002 0.0038650285
000120 6e 9f 69 bb 45 2b e6 3b 28 bc f9 3b c8 75 ae 3c
       -0.0035648006 0.007024201 0.007621307 0.021296397
000130 0f f1 31 bc fc cf 4e 3c c8 16 53 b9 59 6a cf bc
       -0.0108606955 0.0126228295 -0.00020131015 -0.025319265
000140 ff 1e 1a 3b 2e 25 8a bc fc d9 82 bc ba d1 81 3c
       0.002351701 -0.016863432 -0.015973084 0.015847076
000150 fc 1f 14 3c 7b 0c a7 bb 13 06 2b 3c 22 33 f6 3c
       0.009040829 -0.0050979233 0.01043846 0.030053679
000160 e2 55 3f bc 03 fd 2d 3c 71 50 ce ba ab a1 79 bc
       -0.011678191 0.010619405 -0.0015740526 -0.015236299
000170 2a df a3 b9 08 9a 46 3b 7f fd 84 3c 13 49 8f bc
       -0.00031256053 0.0030304212 0.016234158 -0.0174909
000180 22 fb ef 3b 30 18 05 3b d8 c6 29 bc b0 a3 4d bc
       0.0073236385 0.0020308606 -0.010362349 -0.012551233
000190 42 18 29 3c f4 6e 4e 3c bd e2 8b bb 38 9f 22 3b
       0.010320725 0.0125996955 -0.0042689727 0.002481414
0001a0 c0 15 0c 3c 50 c0 91 bb ac 80 93 3b 1e 01 5e bc
       0.0085501075 -0.0044479743 0.004501423 -0.013550071
0001b0 c1 69 a4 3c 39 19 8e 3a 88 43 e9 bb 56 7d 85 3c
       0.020069959 0.0010841257 -0.007118646 0.016295116
0001c0 06 76 89 bc 4f 3b df 3b 98 d7 5d bb 0f 81 24 bd
       -0.01677991 0.00681249 -0.0033850428 -0.040162142
0001d0 2a 1c 85 3c 2a 55 44 3d d6 7f 03 39 8d 65 ac 3b
       0.016248781 0.04793278 0.00012540756 0.0052611292
0001e0 d7 bd 02 bc 58 1a 75 bb 58 7e 99 bc 94 ec cf bb
       -0.007979832 -0.0037399735 -0.018737003 -0.006345341
0001f0 94 6d 54 3b 71 d0 be 3b d7 75 7c bc b5 10 44 bc
       0.0032413946 0.005823188 -0.015408955 -0.011966874
000200 d2 d2 19 3b 6a 7a 8c bc 93 4e 1d bd 6b 72 b8 bc
       0.0023471606 -0.017148215 -0.038405012 -0.022515496
000210 01 67 1f bc d0 aa 0f bb fc 1d b4 3b a6 bc ef b9
       -0.009729148 -0.002192188 0.0054967385 -0.00045726186
000220 53 76 54 3c ab 8d 2c bc 91 f0 7e 3a 96 72 80 3c
       0.012967664 -0.010531823 0.0009725178 0.015679639
000230 82 6c fa 3c fb e0 32 3d e1 aa 41 3c 42 53 a3 bc
       0.030569319 0.04367159 0.011820526 -0.019937161
000240 6a 71 3b 3c df 19 db bc f9 82 96 bb 25 25 4a 3c
       0.011440614 -0.026745735 -0.00459325 0.0123379575
000250 6a 89 ca bb 5d 59 09 bc 99 cd 4b 3a 9a 76 48 3c
       -0.006180932 -0.008383122 0.0007774472 0.012235308
000260 b7 c7 a4 bc 52 35 f8 bc df ec 54 3b b3 2d e0 3b
       -0.020114763 -0.030298863 0.003248982 0.0068413853
000270 e8 6e 12 3c 0a 00 9c 3c 31 98 50 bc b6 e8 25 b9
       0.008937575 0.019042987 -0.012731598 -0.00015822318
000280 47 f2 b2 bb fd 05 5a 3c 71 8c 09 3c 7f e2 91 3c
       -0.0054610106 0.013307092 0.0083953 0.017808197
000290 ce fe d5 bc 32 c8 9a 3b c9 4b ee bb 36 56 ab bb
       -0.026122477 0.004723572 -0.007272218 -0.005228783
0002a0 96 36 8e 3c 19 0f 3a bc 44 ac 8b 3a d1 dc 8c 3c
       0.017360013 -0.011356139 0.0010656198 0.017195137
0002b0 a4 b7 37 bb 85 55 15 39 2f c6 ff bb e4 80 86 bb
       -0.0028033042 0.00014241606 -0.0078056077 -0.0041047204
0002c0 13 fe d2 b9 b5 08 e1 3c bb c4 fc bb 06 f9 c4 ba
       -0.0004024362 0.027469972 -0.007713882 -0.0015027828
0002d0 c7 39 02 bc e9 84 19 bc 3f 37 2a bb a9 f1 86 b9
       -0.0079483455 -0.009370067 -0.002597287 -0.00025738523
0002e0 cf 01 af 39 1c fe c6 bc 15 fc 66 3c cc b4 2d bc
       0.0003337995 -0.02429109 0.014098187 -0.010602187
0002f0 2a 54 fe bb d8 e3 6a 3c 43 6b 60 3c 1f 57 47 3c
       -0.007761498 0.014336549 0.013697448 0.012166767
000300 bc 63 1a bc 7e 2d 23 3c 1f b9 14 ba 6d 9e 4e 3b
       -0.009423193 0.009959577 -0.0005673337 0.0031527535
000310 04 8d 6b 3c 47 c4 1d bb 6c bb e7 3c be a9 0a bd
       0.014376882 -0.002407329 0.028287612 -0.033853285
000320 e3 a8 c2 3c 05 1e 1e bc 04 21 1e 3c 29 17 80 bb
       0.023762172 -0.009650712 0.009651426 -0.003909011
000330 e3 fc 3e bc 06 fd 18 3c 8e 25 39 bc b9 64 bc bb
       -0.011656973 0.009337669 -0.011300458 -0.0057493118
000340 f6 fe 8d 3c d1 ac 86 3c df 29 1c bb d7 fa 1c 3c
       0.017333489 0.016439827 -0.0023828668 0.009581289
000350 cf 7d 04 3c a9 80 33 bc fb a8 86 b9 7e 7a 11 3b
       0.008086636 -0.010955968 -0.00025684372 0.0022198255
000360 5f 4f 47 ba 76 b6 d6 bb d3 21 1e 3b 96 3e f2 bb
       -0.0007603075 -0.0065525128 0.0024129048 -0.0073927147
000370 07 df 74 bb e3 89 6d bc bb 35 ff bb ec ac d6 3b
       -0.003736438 -0.014498207 -0.0077883876 0.0065513756
000380 cf 73 ea 3b 16 d0 ee 3c bb 99 1b bc e4 2c e0 bc
       0.0071549187 0.029151957 -0.009497101 -0.027365156
000390 ac 7a 5f b8 4a f1 ad 3c ea 37 a2 bb 5d d3 87 bb
       -5.328159e-05 0.02123322 -0.004950513 -0.0041450695
0003a0 30 87 57 bc 92 87 8d bb 16 ed 3c bc 1e 82 08 bc
       -0.01315479 -0.0043191398 -0.011531135 -0.008331804
0003b0 a3 9d 4a bd 2f e4 28 bb 27 9d e8 bb d5 76 2c bd
       -0.04946674 -0.0025770774 -0.007098812 -0.042105515
0003c0 76 15 46 3c 4b d4 a8 bc 6d 22 bf 3c 1a 9b 07 3c
       0.012090078 -0.020609042 0.023331845 0.008276725
0003d0 d0 80 01 3c 0d e6 45 bb c2 dd 8b 38 ec 51 9a 3a
       0.007904246 -0.0030196935 6.669342e-05 0.0011773682
0003e0 8e 71 a3 ba 69 cd ed bc 6c 3b bb bb 1b b8 8d 3c
       -0.0012469755 -0.029028611 -0.0057138707 0.017299702
0003f0 f7 ea a7 bb 82 c4 13 bc 2b 04 c0 bb 69 dd 7c bb
       -0.0051244455 -0.009019019 -0.005859872 -0.003858412
